Specific task/Task_3/best_oracle.pth (torch, 284486 bytes, 21 tensors)

layer1.weight f4 [128, 16]
00000000: 7560 373e f522 7c3e 510d 69be 51b7 b6bd
00000010: dcce 0e3e a624 653e 54e3 013e 9f2f 0bbe
00000020: a437 cfbd b942 7cbe 7568 e6bd f2d2 fa3d
00000030: 09f1 013d 7416 6d3e 98aa 4ebd 1e15 fe3d
00000040: bf3b b4bb cad7 71be c322 733e e767 bcbd
00000050: d303 0dbe 8d3b 673c 943f a93b 717e a0bd
00000060: 52c4 9dbd 6d10 043d 21e1 37be f0c7 c13d
00000070: ab47 56bc 762e 4a3e 7e06 9fbd 9aa3 823e
00000080: 9019 77be 0ddb 043e 5f4d b8bc e21f 48bd
00000090: 4b0e 5e3e f8e9 583e eedf f5bc 4042 5ebe
000000a0: 06f2 7ebe 36a2 dcbc e552 b5bd 299f c63d
000000b0: 3c45 b13c a92f 08bd 0dcd efbd f63b 183d
000000c0: 67e9 03be 7f0e 803e 74eb 42be 4a7c b7bb
000000d0: 12f5 a9bc 5bb5 08be 6a96 47be c92b 0dbd
000000e0: e737 4a3e 1fe0 fe3d 844a 54be 147f 88bb
000000f0: 2a95 603e 119d a3bb b1ab 933c d220 4abe
00000100: 3db1 8d3d fe7a bf3d 57a1 743d fa39 96bd
00000110: a3b0 143c 3abc 403e fb4f 71be 5f20 223d
00000120: af36 2e3e 7f38 473e d817 f43d 7f2d ddbd
00000130: 7410 64bd b18c abbd 8a51 0b3d adb8 5bbe
00000140: 93f9 743e a0f2 26bd 9d3a 6e3e a8d7 f9bd
00000150: b61f 133e f219 8ebd 9298 273d d04b f93c
00000160: 3bd0 15be 32de 0bbe 1a24 0c3d 0191 ebbc
00000170: 2506 5abe de75 7abe b535 5dbd c1dc 9c3d
00000180: 27d6 bb3d b2bd c2bb 7dbd aabd 1c6a 403e
00000190: a451 9e3c 7dfc 73be 4339 2cbe 3d99 2abe
000001a0: 8ee8 adba 6d90 c7bd 1d68 543e 9109 1abe
000001b0: ec0a 83bd 66d9 683e b4ba 22be b521 c33d
000001c0: 292c 783e 802d babc 7875 073e 3a61 40bd
000001d0: 6ee7 2dbe f9e8 d0bd 698d 33be 8296 8abd
000001e0: ee54 643d 1a99 4dbe d82b 74be e0be 2dbe
000001f0: f0dd 5cbe b73b 363e 8c00 5bbe a2b9 173e
00000200: ecfc c43d 487d 113e b57b 69bd 8271 313d
00000210: d3cf 5fbe 582c a3bd 768d 9f3d 765b 6b3e
00000220: d869 4abd f29c 943d 1ff8 313e a9e3 11be
00000230: 5fe6 33be 4cba 5bbe d782 453e cfd1 083d
00000240: 4da7 20be fb37 9d3d a303 313d d37e d53d
00000250: 8750 363d d9b0 523e c5fb 8abd 36b7 ac3d
00000260: ec2a f33d 9e68 ed3d f2e9 f0bd 4db9 6f3e
00000270: 3e26 2bbe db5e dbbd ccab 09bd 7b81 6f3e
00000280: 4572 ecbd 7e1f 063e f862 463e 0415 13be
00000290: 072e 1abe f38f 883d 8e13 07bd e5b3 4a3e
000002a0: 3605 70be 1fd8 0e3d aff0 02be 1a5c 273e
000002b0: e4e1 473e 855d 7abe 965c e1bd 0456 a8bd
000002c0: 8a9e 53be 4337 0bbd 9368 483e 4c22 56be
000002d0: 08f4 073e 9a24 e1bd 52aa 283e f2be 38be
000002e0: 9ddc 2fbc 8416 033d 56ba 503e cf76 243e
000002f0: 406d 033d a25d e23d dfd8 813e de20 ca3d
00000300: c8ff 57be a97f c13d 59f0 dfbd ed61 60bd
00000310: 7f1d 4cbe b1f5 99bd 4cc7 033d b676 2fbe
00000320: 705a 30be 3ad1 46be 0672 6fbe 4cd9 713e
00000330: 587e 7dbe a3a4 8fbc fe87 c3bd 6051 9d3d
00000340: aca4 16be 4dc2 a9bd 4844 ac3d 4c3f 3dbe
00000350: 3558 7c3b d8ad e7bd ceb0 3bbe 4cfe 13be
00000360: fe5b 2e3e c9f6 343e f46c 7a3e ba6c f4bd
00000370: fca5 31be 5ae8 1b3d 3726 733e 7d2d cbbd
00000380: 7e79 bdbd 1d03 feba 3546 f33c 25c2 67bd
00000390: d297 303e 1f4e 91bd 2d52 92bd 2290 f4bc
000003a0: 40a5 32bd edba 353e 9cf0 373d 15b1 d53d
000003b0: 497a 1bbd 04f9 503e aa77 00be 184d 11be
000003c0: 5047 45bd 0394 533e 0c38 b33c 562a 753e
000003d0: bb77 783e b6f2 53be 2cf9 3d3e 7006 293e
000003e0: 477a 82bd 6012 08bd 59c7 1dbd 532b 72be
000003f0: 961a 473e 0dc3 68bd fe57 e03d 82a3 083e
0.17907889 0.2462271 -0.22758986 -0.089216836 0.13946098 0.22377262 0.12684375 -0.13592385
-0.101180345 -0.24634828 -0.11250392 0.12247266 0.03172401 0.23153096 -0.05045566 0.124063715
-0.0055002864 -0.23617473 0.2374373 -0.09199505 -0.1377099 0.014113319 0.00516505 -0.07836617
-0.07703461 0.032242227 -0.17956974 0.09461963 -0.01307861 0.19744286 -0.0776491 0.25515443
-0.24130845 0.12974186 -0.02249783 -0.04885853 0.2168514 0.21183002 -0.030014005 -0.2170496
-0.24897012 -0.026932817 -0.088537015 0.09698326 0.021639459 -0.033248577 -0.11709032 0.03716656
-0.12882005 0.2501106 -0.1903513 -0.005599533 -0.020746741 -0.13350432 -0.19490972 -0.034465585
0.19747888 0.124450915 -0.2073155 -0.0041655395 0.21931902 -0.004993089 0.018026205 -0.19739082
0.06918571 0.09349631 0.05972418 -0.07335277 0.009075317 0.18821803 -0.23565666 0.039581653
0.17013048 0.19455145 0.1191861 -0.10799693 -0.055679753 -0.08376444 0.03401331 -0.21457167
0.2392333 -0.04075873 0.23264547 -0.12199336 0.14367566 -0.069385424 0.040916987 0.030431658
-0.14630215 -0.1365898 0.034214117 -0.028755667 -0.21291406 -0.24459025 -0.054006297 0.07659293
0.09171706 -0.0059430236 -0.08336923 0.18790478 0.019326039 -0.23826785 -0.16818719 -0.16660018
-0.0013268159 -0.09744344 0.20742841 -0.15042712 -0.063985676 0.22739181 -0.15891534 0.095279135
0.24235596 -0.022726774 0.13228405 -0.046967722 -0.16982815 -0.10200686 -0.17534412 -0.06766988
0.055745058 -0.20077935 -0.2384485 -0.16967344 -0.21569037 0.17796217 -0.21386927 0.14816907
0.096185535 0.14207947 -0.05700274 0.04332114 -0.21856622 -0.07967442 0.077906534 0.22984108
-0.049417347 0.072564974 0.17379807 -0.14247002 -0.17568348 -0.21457785 0.19288193 0.033403214
-0.1568882 0.07676693 0.04321636 0.104245804 0.04451039 0.20575275 -0.067863025 0.08433382
0.11873421 0.1159222 -0.117633715 0.2341053 -0.16713807 -0.107114516 -0.033611104 0.23389237
-0.11545233 0.13097951 0.19373691 -0.14363486 -0.1505662 0.06668081 -0.032977633 0.19795187
-0.23439488 0.034874078 -0.12787126 0.16343728 0.19519764 -0.24449737 -0.110039875 -0.08219531
-0.20665947 -0.03398825 0.19571142 -0.2091152 0.13276684 -0.10993309 0.16471222 -0.1804159
-0.010733751 0.032003894 0.20383582 0.16060947 0.03208661 0.11053015 0.25360772 0.0986955
-0.21093667 0.09448177 -0.109345146 -0.05478089 -0.19933127 -0.07517565 0.032172486 -0.17135128
-0.17221999 -0.19415751 -0.2338334 0.23618048 -0.24755228 -0.01753456 -0.09547423 0.07681537
-0.14711255 -0.08289013 0.08411461 -0.18481177 0.0038504724 -0.11312455 -0.18329164 -0.14452475
0.1702728 0.17672266 0.24455625 -0.119348004 -0.17348474 0.038063385 0.23745047 -0.099207856
-0.092516884 -0.001937959 0.029696563 -0.056581635 0.17245415 -0.070949785 -0.0714458 -0.029853884
-0.043614626 0.17747088 0.044907197 0.10434166 -0.037958417 0.20407492 -0.12545648 -0.14189565
-0.048163712 0.2066193 0.021877311 0.23941931 0.24264424 -0.20698056 0.18552083 0.16506362
-0.06370979 -0.03322065 -0.03852019 -0.2364934 0.19443735 -0.05682664 0.10954283 0.13343623

layer1.bias f4 [128]
00000000: a851 273e d24a d53d 2c92 c53c 1bc2 11be
00000010: c30a e83d b3b4 d83d f0a4 f8bd ed69 4cbe
00000020: e00d f33d cdb1 62be 7350 6e3e d13f 27be
00000030: 27db 4e3e f067 403d c6c1 27bd 84de 343e
00000040: 7002 e43d 8442 36be f131 1d3e 0b5d 183d
00000050: 5c72 61be 0a63 fbbd 3386 04be fd2c a8bd
00000060: e3eb fc3d 5e56 213e c2cb 1e3e 9cfe d0bc
00000070: 139d adbc 4442 473e 494d 2f3e 3d67 673e
00000080: 1478 5a3e 7f05 763e 1864 40be e5b3 573d
00000090: 1dc8 bf3d 048c 443e 7c2e d3bd 79cf c13c
000000a0: 54fc 55bd 8e2b c33d 8e34 773e 9d53 5c3c
000000b0: afc1 d53d 3f7c 273e bb16 38be 319a 293e
000000c0: 4725 e6bd b9a1 5dbe 99de 1b3d 6c5e 123d
000000d0: 2113 71bc 0203 503d 4d3e 2b3e a4ee 23be
000000e0: 6136 0e3e 8d9b 05bc 7718 233e 5f7e edbd
000000f0: 35b0 963d 16b5 48bd 9c07 3e3e 1dab a83d
00000100: b186 81bc 455a 063e 9649 0e3d 0e50 563e
00000110: 4ef5 14be 9674 363e 3879 10be 5edb aa3c
00000120: 1e20 0bbe 734b 673e 82a6 31be 796d b0bc
00000130: 402a 4c3e 5a94 a13d c236 e63d a8cf 363e
00000140: 50c9 eb3d 890d 173e ede9 b1bd 240d 13be
00000150: aee6 25bd 19a2 113e de92 49be ddcc 573e
00000160: 3ac3 603e 7dd6 77be 21eb 0e3e 4cfd c0bd
00000170: 8266 06be 8f47 64be 98e5 1bbe e22c 77be
00000180: 19cd 08be 9875 3ebe 997d 2e3e 2fcc 3a3d
00000190: cb43 f7bd d51e 15bd f847 203e 877e aa3d
000001a0: f9e5 4a3e 7b5f 8d3d 175a 103e ddba 613e
000001b0: f183 a5bc 7e88 44ba 1100 29be 2b0e 61be
000001c0: cf33 6fbc 5b2d 03be 1cc1 67be 928a 04be
000001d0: 11ae 3d3e 7234 03bd a2ec da3d becf 19bd
000001e0: b7d1 14be d504 313e 21e8 8d3c 80c9 20be
000001f0: b8dd 393e 8933 d13d 626a 77be 0ab7 813d
0.16339743 0.104146615 0.024117552 -0.14234202 0.11330178 0.10581341 -0.12140834 -0.19962282
0.11867881 -0.22138138 0.23272876 -0.16332938 0.20200787 0.046974123 -0.04095628 0.17663008
0.111332774 -0.17798811 0.15351082 0.037198108 -0.22016281 -0.122747496 -0.12941818 -0.08211706
0.12349679 0.15755603 0.15507415 -0.025512032 -0.021193063 0.19458872 0.17119326 0.22597976
0.21334869 0.24025534 -0.18788183 0.052661795 0.093643405 0.19194037 -0.103116006 0.023658501
-0.052242592 0.09529792 0.24141142 0.013447669 0.10437333 0.1635599 -0.17977421 0.16562726
-0.11237579 -0.21643724 0.038054083 0.03573458 -0.014714033 0.05078412 0.16722985 -0.16009003
0.13887931 -0.008154762 0.15927301 -0.11596369 0.073578276 -0.049000822 0.1855759 0.08235762
-0.015811296 0.13120373 0.034738146 0.20928976 -0.14546701 0.17817912 -0.14108741 0.020856556
-0.1358647 0.22587375 -0.17348674 -0.021536576 0.19937992 0.07889624 0.11240913 0.17852652
0.11513007 0.14751257 -0.08687196 -0.14360482 -0.040503196 0.14221992 -0.19684932 0.21074243
0.21949473 -0.24202915 0.13956882 -0.094233125 -0.13125041 -0.22292922 -0.15224302 -0.24138215
-0.13359489 -0.18599546 0.17040099 0.04560488 -0.12073477 -0.036406357 0.15652454 0.083249144
0.1981429 0.06902977 0.14096867 0.22043939 -0.020204516 -0.00074971456 -0.16503932 -0.21978061
-0.0145997545 -0.1281027 -0.22632259 -0.12943485 0.18523432 -0.032032438 0.106896654 -0.037551634
-0.14533125 0.17287 0.017322602 -0.15701866 0.18150985 0.10214908 -0.24161676 0.0633374

layer2.weight f4 [128, 128]
00000000: d064 583d 64c3 3d3d 67a2 a93d b938 f2bc
00000010: 6c6d ce3c a6fe 1cbd 2b46 a6bd 28fc 503d
00000020: 2991 313b 8b94 88bd 177d 70bd 31d3 04bd
00000030: 31b8 f5bc 5369 633d 97c6 63bc 2d8e 153c
00000040: 941b 523d 9c93 433d 34b5 573d f92b 86bc
00000050: e9c5 d6bc 6f36 573d 58e0 dabc 09e1 1a3d
00000060: d69b 08bc aa2f 34bd 5733 923d b320 003d
00000070: a75a a63d d80f eb3c 28c6 533d 4f4c 66bc
00000080: 6922 0dbb 212b 33bd 8a7b 36bd 79cd b23d
00000090: b338 eb3c e1dc e6ba 9f37 59bc eaa3 95bd
000000a0: 5ea2 acbc dac3 2bbd 90e3 163c 3ac3 dfbb
000000b0: 868d 5fbc 0b6e 943c 951c ecb9 5385 743d
000000c0: 0446 a2bd 892f 903d b5f6 93bd d0ef 10bd
000000d0: 7bd5 ae3c 0903 9cbd 42c3 64bd 3aa2 86bd
000000e0: 5f68 5e3d 4029 d3bb 519f 55bd dc38 3cbd
000000f0: 5fcd 71bd 5ee3 16bd d042 45bc c425 49bd
00000100: 4051 863d 1f87 66bd 927d 5f3c fcf1 b43d
00000110: 2e18 85bd 8487 283d 3c7e 34bd f018 25bd
00000120: a70b 8f3d ef83 223d e490 66bd 9a86 4b3d
00000130: 0f5b 523d ce4f a4bd 811f 78bc 2f26 59bd
00000140: c77b a9bd 15f3 14bd e01b 7ebd 60ea a5bd
00000150: 855c 413d b454 013d a546 85bd a7e7 753d
00000160: 3f5c 74bc ddfb 483d 5811 383c 5c67 723d
00000170: 513b 57bd bf9c a1bd 77c6 04bd 8838 3cbd
00000180: 0be4 7ebd a100 f6bc 3282 213d 218c 82bd
00000190: 563e 9abd a670 a23d a208 8c3d 9f56 3bbd
000001a0: b47c b03d 027c 703d 9887 d1bc 8a73 323d
000001b0: 2412 643d 8cf1 22bd 1867 ad3d 28f2 b13d
000001c0: b3a7 583d 48cc 20bd 7344 80bd 628d 94bd
000001d0: ad59 15bd 3ee8 ad3d 3024 ec3b 693d 3a3d
000001e0: bb0d b93b 6fa1 73bd e078 8bbd 391f a0bd
000001f0: 8b00 40bd 6715 59bd fa5e a7bc 287e 98bc
00000200: 0270 91bd b59d afbc 83ad ea3b 8767 933d
00000210: cce4 463c c817 26bd 96ad a0bd 1eee a2bd
00000220: f7dd 89bd b689 453c 4228 863c e61f 22bd
00000230: e19b 2d3d f70e 873d 206b 9bbd dd87 003d
00000240: c25c d4bc 55b6 ff3c 53b0 453d 5355 c2bc
00000250: 1625 683d cf27 013c 00f1 a03d a7fe b2bd
00000260: 099c 34bd 119e 99bd 0c30 50bd 1b27 753d
00000270: b7ca a1bd eb35 6d3d 602d 91bc a453 1d3d
00000280: ad05 a1bd 3e1d 933d 25a3 4c3d d3d9 3cbd
00000290: 3196 903c 10e0 c5bc 6709 723d 844f 803d
000002a0: 0f42 05b9 50d1 e8ba 906d 37bd ce56 833d
000002b0: 7d2b 6ebc 00e5 b0bb f3d4 253c 87a2 8a3d
000002c0: 357b 82bc 1a83 8b3d cafb 4b3d 4d8e f53c
000002d0: 4961 aebc 0a63 34bb 8922 7cbd 1d8b 013d
000002e0: 98d1 f33c c773 803d f962 033d d671 a93d
000002f0: 1780 8fbc a1ab e73b 6955 b73a 1829 9bbd
00000300: b726 78bd a9fd 4f3d 2d46 efbc b64c 8a3d
00000310: de9e 83bb 3cbf dc3c f724 873c 80ce aa3b
00000320: 6c15 89bd 3a47 a9bd 305f 84bd 4ae3 a2bd
00000330: 3620 d3bc 34d9 8abd 5948 05bd 8b5d 9cbd
00000340: 93bf 5ebd 940c 0d3d e2ba dc3b 5304 93bd
00000350: 6a91 0dbd d717 1cbd 8aca 9d3d 7fc1 3dbd
00000360: 44b2 39bc 6794 803c 886d ddbc 9cad 63bd
00000370: bf3f 75bd 3440 2bbd a151 5bbd 9e27 ebba
00000380: 91ed 8bbc 8129 913d 974f ad3c 58a2 26bd
00000390: 8865 28bd 1327 33bd de6d e33c a8b7 08bc
000003a0: 86af 1e3d 8e58 b7bd 156f 093c 0177 423d
000003b0: 63af b6bd 7f7c a2bd f645 ba3c c573 a63d
000003c0: 7efe c6bc 039f 8a3c c64d aab9 0746 a8bd
000003d0: 794f ed3c 46fc e93c a798 063d 1903 723d
000003e0: d710 b5bd 1da7 adbd 2788 703c df17 96bd
000003f0: d8a4 a7bb 84b8 973c 2561 56bd 562e 6b3d
0.052830517 0.046328917 0.08282929 -0.029568063 0.02519866 -0.03832879 -0.08118852 0.051021725
0.002709458 -0.06668957 -0.058713045 -0.03242797 -0.029995056 0.055520367 -0.013902328 0.009128136
0.05129583 0.047748193 0.052663043 -0.01637839 -0.026217418 0.052542146 -0.026718304 0.037812266
-0.008337935 -0.04399077 0.071386985 0.031281184 0.08122759 0.028694078 0.05170265 -0.014056279
-0.0021535403 -0.043742303 -0.04455141 0.08730597 0.02871356 -0.0017613434 -0.01325789 -0.07306655
-0.021073516 -0.041934825 0.009209529 -0.0068286927 -0.013644582 0.018118879 -0.00045034723 0.05969746
-0.07923511 0.070403166 -0.0722479 -0.035384953 0.02134203 -0.076177664 -0.055850275 -0.06573911
0.054298755 -0.0064441264 -0.05215389 -0.045952663 -0.059033748 -0.036837928 -0.012039855 -0.04910828
0.06558466 -0.056281205 0.013640778 0.08835217 -0.064987525 0.041144863 -0.0440657 -0.040306985
0.069846444 0.039676603 -0.056290522 0.049688913 0.05135637 -0.08023034 -0.01514423 -0.05301493
-0.08275562 -0.036364634 -0.062038302 -0.08101344 0.047207374 0.03157492 -0.06507615 0.060035374
-0.014914571 0.04906832 0.011234604 0.059180602 -0.052546803 -0.07891225 -0.032415833 -0.04595235
-0.062229197 -0.030029597 0.039430805 -0.06374384 -0.07531421 0.07931642 0.06837584 -0.045736905
0.08617535 0.058712013 -0.025577351 0.043567218 0.055681363 -0.03978114 0.08466929 0.08688766
0.052894305 -0.039257318 -0.06263056 -0.07253529 -0.036462475 0.08491562 0.0072064623 0.04546872
0.0056473888 -0.059480127 -0.068101645 -0.07818455 -0.046875518 -0.052998926 -0.02043103 -0.018614843
-0.07101442 -0.021437505 0.0071617975 0.07197481 0.01213951 -0.040550023 -0.07845609 -0.079555735
-0.067317896 0.012056759 0.016376618 -0.039581202 0.042384986 0.06594651 -0.07588792 0.03137957
-0.025923137 0.031214872 0.04826386 -0.023722326 0.056675993 0.007883026 0.07858467 -0.08739977
-0.04409412 -0.07500852 -0.05082707 0.059851747 -0.07899993 0.05791275 -0.017721832 0.038409844
-0.07862411 0.07183312 0.049960274 -0.04610617 0.017649742 -0.024154693 0.059090998 0.062651664
-0.00012708477 -0.0017762575 -0.04478222 0.06413041 -0.014536736 -0.0053983927 0.010121572 0.06769281
-0.01592789 0.06812115 0.04980067 0.02997508 -0.021286624 -0.0027524852 -0.061556373 0.03162681
0.029763028 0.06272083 0.03207681 0.082736656 -0.017517133 0.0070700203 0.0013987246 -0.075761974
-0.060583796 0.05077902 -0.029208267 0.06752913 -0.004016741 0.026946656 0.016497118 0.005212605
-0.06693539 -0.082655385 -0.06463468 -0.07953508 -0.025772195 -0.067797095 -0.0325397 -0.076350294
-0.05438192 0.034435824 0.0067361454 -0.07178559 -0.034562506 -0.038108673 0.07704647 -0.04632711
-0.011334006 0.015695764 -0.027029768 -0.05558549 -0.059875246 -0.041809276 -0.053544644 -0.0017940884
-0.017081054 0.07087994 0.021156115 -0.040682167 -0.041112453 -0.043738436 0.02776235 -0.008344568
0.03874161 -0.08952437 0.0083883 0.047476772 -0.08920171 -0.07933902 0.022738438 0.0812755
-0.024291273 0.016921526 -0.00032482872 -0.08216482 0.02896856 0.028562676 0.032860424 0.059084985
-0.088411026 -0.0847914 0.014680899 -0.07328772 -0.0051160865 0.018520601 -0.052338738 0.057417236

layer2.bias f4 [128]
00000000: 8dca 85bd 398d 5cbd 5314 573d 5262 8b3c
00000010: a3b3 84bd 59de ac3d 5d40 803c 39e1 37bd
00000020: 721b a7bd 5b05 81bd f384 ba3c 0e28 5fbd
00000030: ccb1 693d d5d0 43bd ecda 843d 7004 463d
00000040: 0785 0abd f777 9a3d d3ba ddbc 19cc 38bc
00000050: 7f2c a7bd 38d5 643d 2c9b 9ebd ff70 523c
00000060: 0f69 a93d 7231 e8bc 3150 0c3d d065 f8bc
00000070: 8b85 a2bd d60c 913d 30d0 b5bc 6179 203d
00000080: 7329 3e3d 13f9 8a3d 0e88 93bd baf7 4e3d
00000090: 698e 26bd a892 133c 992e cc3a c294 67bd
000000a0: 96e1 6cbd d7d0 65bd d765 2fbd a41a 06bd
000000b0: ba31 933c bc22 fb3b 9973 983d 6f3c 91bc
000000c0: c000 a93d e159 9fbd 4658 fb3b 8093 4dbc
000000d0: 5248 dbbc 474e 78bd 3507 86bd 54f6 203d
000000e0: ebae 0e3d 7b3b 4fbd a276 8dbc 0a80 ac3d
000000f0: fed0 6e3b 53dd e53b 89cf 493d 9578 723d
00000100: 5395 03bd 230c c53c 8830 05bd e8b1 2b3d
00000110: 736e 65bd e790 a3bc 02a3 ae3d 2b3d 483d
00000120: 90b1 58bb 94ce 92bd e937 a6bd c766 673d
00000130: 3649 d9bb bc5a 60bd 98d3 443d 7581 343c
00000140: 152c 1dbc c546 50bd 7f7a 9d3d a05d 82bd
00000150: fe6b 013d 9354 843d 34d5 923d 885d 83bd
00000160: 5b10 b03c 12bd b9bc f2c7 8c3d 7ba1 503c
00000170: 837c 443b 4116 3fbd d844 b63d 780f e2ba
00000180: 5b82 56bd 0d75 913c 1deb 1dbc 9b8c 50bd
00000190: 6780 91bd d500 513d 4752 6dbd bf24 953d
000001a0: 12d5 a23b f021 31bd f116 103d 3117 5ebd
000001b0: c1f0 9c3d 58ee 44bd 29c5 97bd be59 e2bb
000001c0: fe12 a3bd 2e26 d23c 150f 343d fcc7 8cbd
000001d0: 771d a2bd 6553 563d a7e6 6bbc 699d af3d
000001e0: a364 89bd 794a c5bb 4047 85bd ee88 c5bc
000001f0: f5a8 383c f746 82bc 068d 5c3c 05b8 08bd
-0.06532774 -0.053845618 0.052509617 0.017014656 -0.064795755 0.08440847 0.01565569 -0.044892523
-0.08159532 -0.062998496 0.022768473 -0.05448156 0.057054326 -0.04780658 0.064870685 0.048344076
-0.03381827 0.07542413 -0.027066624 -0.011279129 -0.08162784 0.055867404 -0.077444404 0.012844323
0.082719915 -0.02834389 0.034256164 -0.030321985 -0.079356275 0.070825264 -0.022193998 0.039178256
0.046426248 0.067857884 -0.07203685 0.05052922 -0.040663157 0.009007134 0.0015577852 -0.05653835
-0.057832323 -0.05610737 -0.04282173 -0.03274025 0.017968047 0.007664053 0.074439235 -0.017729012
0.08252096 -0.07780815 0.007670435 -0.012547374 -0.026767883 -0.060621526 -0.065443434 0.039297417
0.034834784 -0.050593834 -0.017268483 0.08422859 0.0036440487 0.0070149093 0.049270187 0.059197027
-0.03212483 0.024053639 -0.032516986 0.04191771 -0.056013536 -0.019966556 0.08527185 0.04888646
-0.003306482 -0.07168308 -0.08116133 0.0564945 -0.006631042 -0.05477403 0.048053354 0.011017193
-0.0095930295 -0.05084874 0.0768938 -0.06365514 0.03159713 0.06461444 0.071695715 -0.06414324
0.021492174 -0.022673164 0.06874074 0.012733812 0.0029981441 -0.046652082 0.0889985 -0.0017247042
-0.05237041 0.01775601 -0.009638575 -0.05091534 -0.07104569 0.051026184 -0.057939794 0.072823994
0.0049692476 -0.043245256 0.03517813 -0.054221336 0.07663108 -0.048078865 -0.07410652 -0.0069076708
-0.07962607 0.025652971 0.043959696 -0.068740815 -0.07915776 0.052325625 -0.0143982535 0.085749455
-0.06708648 -0.0060208407 -0.065077305 -0.024113145 0.011270751 -0.01590298 0.013461357 -0.03337862

layer3.weight f4 [32, 128]
00000000: 29f2 383d d3c7 0f3d a812 a63d cccf 13bd
00000010: 5fd9 62bd ee00 973c f48b fb3c fef7 a2bd
00000020: 28cc b9bd bd59 3abd fd09 653d 6935 993d
00000030: 2e22 743d c674 913d 38f4 123d 30f5 e2bb
00000040: 4c9a 643d e34f 273c 5f73 47bd 52ce 3f3d
00000050: ee55 a1bd f33c 923c c410 f43b e46c 6c3d
00000060: c37d 383d a97c a23d 714f 5bbd dbcd 2dbd
00000070: 1e13 80bc 21bd b03c 828c 3dbc 7fab 95bd
00000080: 0e6a 08bd 3f59 333c a9c9 763d 81a6 663d
00000090: 9c40 aebc 171a 813d 2d82 a4bd 292b 50bd
000000a0: be30 43bd d62b 8fbd 52c1 373d 4f81 083c
000000b0: b085 8fbd 0d85 333d 74d8 dbbc 1260 573b
000000c0: 5d51 f0bc 99e8 7b3d ffeb 983d 30a9 68bd
000000d0: 3894 6abd 672f b0bd 2e91 913d bb2f 813d
000000e0: b663 92bc bb42 86bc 5fa1 9a3d 70a3 83bd
000000f0: c43b 92bd 34a8 a53d 7348 46bd a49a 3cbd
00000100: 895a 8bbd 8361 22bd 59d3 dcbc 5f04 7e3c
00000110: c35d 20bc 57e1 f63c 0acf 573c 174c 843d
00000120: 9a75 153a c2d0 91bb 2f2b aabd 720e 5ebd
00000130: 0634 80bd 4689 60bb d73c 5e3d 2ee4 9dbc
00000140: b7e0 d43c 4ad6 36bd af65 fbbc 4eea d53c
00000150: 09c4 053d 5283 5dbd df39 45bc 6b45 e23c
00000160: bd1f 9b3d 91d6 08bb 0805 a53d a05e 30bd
00000170: fbb3 053d aa17 703d 9476 903d b05d 88bd
00000180: 895a 483d 4bf9 1dbd cbad 403d a39e 5c3d
00000190: 8246 9e3d 4ab4 1fbd 1e79 953c 90b5 853d
000001a0: 3114 acbd ad4f 9e3d 3073 753d 46c5 99ba
000001b0: 1726 00bd 4a7c 453d de2e 81bd d0fd 94bd
000001c0: 9f90 473c 264b e23c 3b64 a63d bc87 c23c
000001d0: 2a95 c7bc e929 acbb 3d64 a0bc b331 16bd
000001e0: fc66 b03c 5b8d 96bd 2624 53bd ba49 bb3c
000001f0: 388b a4bd c61f 843d e72f efbb c581 123c
00000200: 3e17 b93d 5a04 9cbd a3a8 b2bd 63a6 173c
00000210: 64a5 28bc 8db6 44bd f1ab 1c3c 55b3 533d
00000220: 7759 89bc 79d9 88bd d1c3 7a3d 2ad2 f73c
00000230: 158d 2cbd 29e9 4cbd 6e5e 8abc 98ba e8bc
00000240: 719e 36bd df21 0bbd 8f4f 1b3c fceb a63d
00000250: 4700 a7bd 03d6 acbd c910 1d3d 7efe 56bd
00000260: 9cab 923d ca77 97ba 54a0 173d 21bc 96bc
00000270: 827b a03c d450 263d 0394 7f3d 1fc3 e83c
00000280: 7d24 5e3b a50c e83c 943a abbd b8b5 d73c
00000290: d02a 6cbc bd47 8c3d 1ff3 95bd 65de 32bd
000002a0: fd69 a4bc 39a6 913d 48f4 263d 961e a9bc
000002b0: 3932 38bb 20e3 983d 6b17 a53d 2c5a ae3d
000002c0: 081f 8b3c 7b43 313d b0d1 31bd cf8f 473d
000002d0: 625d 9e3d d7b1 7e3d a950 8a3d 4664 263d
000002e0: 91c9 af3d 5a21 a93d 300e 6f3c b470 293c
000002f0: d2f8 ac3d df3d 8abd bfbf b93d 61a3 753d
00000300: ea18 8abd 7076 12ba 6c30 a83d 0874 763c
00000310: dc34 213d f130 75bd 4ac9 783b d614 aabd
00000320: 66c2 0e3d 93cd 0c3a e3a3 83bd 83dd 62bd
00000330: e46c aa3d 583e 75bd 5c16 b7bd 9841 273d
00000340: e2e2 e7bc 6eaa 8ebd 3a4b 5ebc b0cb 7cbd
00000350: 0c55 c43c ce29 a9bc 0732 72bc 0e91 6e3d
00000360: 1db3 7b3d 5cad 8dbd 6b60 73bd 93ae 653d
00000370: f821 103d 8b1d 863d 640d 8a3d 98f4 3cbd
00000380: 0bc0 a6bd 8ed4 933a 272d b9bc 77ba 8f3d
00000390: 785a 8f3c 96e3 61bd bf5d a73c 9e72 4e3d
000003a0: 764b a9bd 309d abbd 05f9 22bd 2a14 9f3d
000003b0: c184 c33c 649d eabc 2b4b 073d 74a7 b6bc
000003c0: b07f 5f3d b407 94bd 2101 91bd 7f3b ac3d
000003d0: 95a2 15bc 5ef2 17bd 3bc6 01bd 865c 8e3b
000003e0: 917b 80bd 7ed8 a1bd 28c2 9d3d f0c6 843d
000003f0: b691 73bd 9c3b 63bc fdd7 adbc 5edf e7bc
0.045152817 0.035102677 0.08109027 -0.036086842 -0.055383082 0.01843306 0.030706383 -0.07957457
-0.09072143 -0.045495737 0.05591773 0.0748089 0.05960291 0.07102351 0.035877436 -0.0069262013
0.05581121 0.010211918 -0.04869401 0.04682762 -0.07877718 0.017851328 0.0074482877 0.057721034
0.04504181 0.07933933 -0.053542558 -0.042432647 -0.015634116 0.021574559 -0.011569144 -0.07308101
-0.033304267 0.010946571 0.06025091 0.056311134 -0.021271043 0.06303804 -0.080326416 -0.05082241
-0.047653906 -0.06990783 0.0448621 0.008331611 -0.07007921 0.04382806 -0.026836611 0.003286366
-0.029335672 0.06150112 0.07466888 -0.056801975 -0.05727026 -0.08602791 0.07107769 0.06307932
-0.017869812 -0.016389241 0.0755031 -0.064276576 -0.07140306 0.08088723 -0.048408937 -0.046045914
-0.068043776 -0.039643776 -0.026956247 0.015503972 -0.00978798 0.030136747 0.013171921 0.064598255
0.0005701423 -0.0044499347 -0.08309018 -0.054212995 -0.06259923 -0.003426151 0.05425724 -0.019273844
0.025986059 -0.044637956 -0.030688135 0.026112702 0.032657657 -0.054080315 -0.012037723 0.027620992
0.07574413 -0.0020879845 0.080576 -0.04305899 0.032642346 0.058616318 0.07053867 -0.066584945
0.048914466 -0.038567822 0.047040742 0.053862225 0.07728292 -0.038990296 0.01824623 0.06528771
-0.08402289 0.07730041 0.059924304 -0.0011731766 -0.031286325 0.048214234 -0.06307767 -0.072749734
0.012180476 0.027623724 0.08124586 0.023746364 -0.02436312 -0.0052540195 -0.019579047 -0.03666849
0.021533482 -0.0735118 -0.051548146 0.022862304 -0.08034366 0.06451373 -0.0072994116 0.008942072
0.09037636 -0.076180175 -0.08723571 0.009255978 -0.010293338 -0.048025656 0.009562478 0.051684696
-0.016766293 -0.066821046 0.0612219 0.030251581 -0.042126734 -0.050027046 -0.01689073 -0.028409287
-0.044584695 -0.03396785 0.009479417 0.08150479 -0.0815435 -0.08439257 0.038346086 -0.052488796
0.07161638 -0.0011556086 0.037018135 -0.018400254 0.019590143 0.040604427 0.062397014 0.028413353
0.003389626 0.028326342 -0.08360782 0.026331767 -0.014414504 0.068496205 -0.07321762 -0.043669123
-0.02007007 0.071117826 0.04076031 -0.020644467 -0.0028106107 0.07465196 0.08061107 0.08513293
0.01698257 0.043277245 -0.043412864 0.04872113 0.07732655 0.06218132 0.06753666 0.040622972
0.085833676 0.082583144 0.014590785 0.010341812 0.08445896 -0.06750082 0.09069776 0.059970263
-0.06743033 -0.00055871066 0.08212361 0.015042312 0.03935705 -0.059861127 0.0037961775 -0.083047554
0.03485336 0.0005371209 -0.06427743 -0.05538703 0.083215505 -0.05987391 -0.089398116 0.04083404
-0.028306428 -0.06966101 -0.01356774 -0.06171769 0.023966335 -0.020649817 -0.014782435 0.058243804
0.061450113 -0.06917831 -0.059418123 0.05607469 0.035188645 0.065486036 0.06740835 -0.0461317
-0.08142098 0.0011278556 -0.022604538 0.07017987 0.017499194 -0.055148683 0.020430444 0.050402276
-0.08266346 -0.083795905 -0.039788265 0.07767518 0.023867013 -0.028639503 0.03303067 -0.022296645
0.05456513 -0.07228032 -0.070802934 0.084097855 -0.009133001 -0.037096374 -0.031683188 0.0043445257
-0.062735684 -0.07902621 0.07703048 0.06483257 -0.059465133 -0.013869192 -0.021221155 -0.028304752

layer3.bias f4 [32]
00000000: 9568 84bd df74 91bd 1c8d 8b3d 8100 ba3d
00000010: 2f95 e13c b1ef 6d3d 6080 6a3d b430 443d
00000020: 5faf 8fbc c9cc f1bb bae0 383c e610 5ebc
00000030: e3b1 9d3d 8e81 aebc 222c 803d cc71 b7bc
00000040: 724e b33c 04ae 8c3c 680f 8fbd 44bd 7f3d
00000050: 460d f5bb 1401 433d a127 9b3b 3162 93bd
00000060: 0d9e 91bd 9ad8 64bd 0d32 b63d 9868 193c
00000070: 0998 acbc 4fbf 37bd 60d7 a6bc ab8d d03c
-0.0646526 -0.071023695 0.06814024 0.09082127 0.027536957 0.058089916 0.057251334 0.04789801
-0.017539678 -0.0073791486 0.011284048 -0.013553834 0.07699945 -0.02130201 0.06258418 -0.02239313
0.021887992 0.01717282 -0.069853604 0.062436357 -0.007478389 0.04760845 0.0047349487 -0.07196463
-0.07110224 -0.05587063 0.08896265 0.009363316 -0.02106859 -0.04486018 -0.02036637 0.025458178

layer4.weight f4 [1, 32]
00000000: 0d32 1f3e f4b4 0e3e 23e3 2bbe 7eb3 86bd
00000010: 8d23 053e 4199 87bb 8c24 ae3c 0d54 fabc
00000020: 5755 f43c 4936 123e 5fd2 463d c922 213e
00000030: 37d2 17be 3a25 cf3d 3d9f 283d fbad 833d
00000040: 7f79 1bbe c345 25be ed2f f63d 933c 0abe
00000050: 25de 01be 1c88 e7bd 03f4 07be 9e16 463c
00000060: a05a 0ebe c54f 81bc 8657 26be e4f2 c4bd
00000070: 43ae ba3d 5ff8 14bd 1ebc cb3d 3418 a83d
0.15546437 0.13936216 -0.16785865 -0.06577204 0.13001843 -0.0041381423 0.021257661 -0.030557657
0.02982585 0.1427852 0.04854047 0.15735926 -0.14826284 0.10114522 0.041167486 0.064296685
-0.15183066 -0.16139893 0.1202086 -0.1349967 -0.12682398 -0.11305258 -0.13276677 0.012090353
-0.13901758 -0.015785107 -0.16244325 -0.0961664 0.09115269 -0.036369678 0.0994799 0.082077414

exp_avg f4 [128, 16]
00000000: a815 fe38 f316 93b8 60b5 b2b8 5423 ef37
00000010: 3c01 53b8 cb18 b138 a06c e838 d376 e9b7
00000020: 9bc0 ccb8 5deb f438 4053 8a38 54ac 81b8
00000030: 05fe 4538 fe10 85b8 6108 e337 693d bfb8
00000040: 1a2e 92b8 4dac b336 95a4 a9b7 85b7 d135
00000050: 8f78 7138 7ddd b3b8 da66 d8b8 63f1 1fb8
00000060: b630 af38 3cb1 7bb8 3f02 b6b7 c7cb 0638
00000070: 1b95 29b6 5287 1938 0120 69b7 38dd 8a36
00000080: 6023 0ab7 7362 0037 2903 1f38 3f40 a037
00000090: f4f0 4338 d9d7 cb36 3bd1 ffb7 474d 97b7
000000a0: b757 1b38 9e0f adb7 866b d737 a9dd cc37
000000b0: cdda 33b8 5e99 2eb7 62cd 7fb7 3ba0 ef37
000000c0: 262d 5db7 3e3a c1b8 389d 8838 76a1 19b7
000000d0: d427 9b37 f615 50b8 3a14 4eb8 c33c 8db2
000000e0: 18cc d635 43ee c3b8 d107 90b7 511a 7138
000000f0: c590 a138 b1ba c538 44cb 4338 3dfe 5337
00000100: 6647 8d38 8898 acb6 1ab3 4139 f749 90b8
00000110: 83c3 9338 4146 c537 0199 b138 7208 8637
00000120: 351d 0cb8 1b06 ffb8 9360 c938 8027 aa38
00000130: 5cb7 75b8 35a2 a938 f2c2 8eb8 6ce7 1539
00000140: 7a2d 81b8 6cc5 c6b7 d202 56b7 4d8e 7ab8
00000150: 9e77 50b6 7b90 6037 3ec9 6bb7 9ead 1438
00000160: 2738 5838 d5f5 83b7 b00a 13b9 953b 3a36
00000170: 50ff 8738 cbc8 5b38 8cd7 9637 0904 eeb7
00000180: 0fd9 0ab8 9071 cfb7 632d 4a37 d042 a9b8
00000190: b8d8 19b7 1c73 4038 6b64 0138 1fb1 d138
000001a0: 5187 32b8 f908 51b8 fce7 a7b8 f8b6 8bb7
000001b0: 898e fe37 344a d236 d500 4538 1a48 8e37
000001c0: 9e21 9938 7a57 8737 8519 e936 feec 0039
000001d0: 4594 20b9 5555 4838 d0d7 5138 ec93 e5b7
000001e0: 23ef 81b8 dcc5 1439 a3f7 f638 9b05 a0b7
000001f0: 60d6 9737 b28d 02b9 24ff 24b8 e834 4bb8
00000200: 7802 0538 a722 0cb8 df92 00b9 82a2 2c39
00000210: 89e2 cab6 65d5 1338 48fd 42b8 4491 24b9
00000220: 8ec7 fcb8 659c d138 d506 d738 a004 c3b8
00000230: 4ef5 7138 fc96 bab8 f797 d338 b002 37b9
00000240: f79a 1c36 93d6 1f38 7614 0538 4f76 3337
00000250: d08b 5f37 d8b6 4fb8 fe41 87b8 2636 c634
00000260: 2417 dc37 266e 3fb8 3dee 3fb8 4ee6 0f37
00000270: 818b 01b6 e5ad 0438 c440 9bb7 0e45 af37
00000280: bd17 0137 63b2 c3b8 1d47 7fb7 eb9a 46b8
00000290: 3cfc 0f38 36ab 4e38 6ddf 3bb8 acf7 f9b8
000002a0: 637f 0937 6d45 1338 dceb 86b8 c3b1 9e38
000002b0: 8230 1a39 9b22 4439 4219 deb6 6040 d4b8
000002c0: a34c 8038 5aa5 a4b8 39cc 2cb8 9e52 a1b6
000002d0: 4339 84b7 563c 9e38 6758 ae36 4ede 51b8
000002e0: 6763 d8b7 5f04 8f38 f7bf b037 f515 e1b6
000002f0: 8916 fa37 9470 d737 a2cc 01b6 50ef 61b8
00000300: 6b6a 2739 0959 e738 99e2 57b8 358e 0f39
00000310: 0198 30b9 84a4 aa38 f170 1c39 8b3f fdb8
00000320: 0b6d 82b8 a713 9239 66df b038 ab99 8cb8
00000330: 504e 9036 fc77 d6b7 9dcc 0bb9 3bbe 9bb8
00000340: e4cb 82b8 0635 cfb7 ab49 b9b6 a210 12b8
00000350: 7bba 25b8 3a89 0438 0d5c 1c38 30c7 fd37
00000360: 5a2b f7b7 50b2 e537 8ef9 8ab8 a1f9 8c35
00000370: e4d2 c838 e8ac 0638 8f8d 5638 cd76 80b8
00000380: e24b 6638 e363 a236 0c8a 3838 86c9 c0b6
00000390: 21b0 b136 e99c b637 ce5c 42b6 19a4 2136
000003a0: b989 0335 bec1 a0b7 c0e8 1b38 77c8 8b36
000003b0: ed35 7db8 3e18 82b6 1d27 f4b7 d963 1438
000003c0: 5980 a1b8 0a59 33b8 a6af 8d37 10af 45b8
000003d0: e00a e738 98b9 61b8 ab4f 28b9 d2da 8e38
000003e0: eb57 45b8 77e0 67b9 cdee c1b8 6c28 cbb7
000003f0: c135 9337 d46e 9937 d2f8 c838 9283 2138
0.000121156976 -7.013781e-05 -8.521485e-05 2.8507471e-05 -5.030747e-05 8.444636e-05 0.00011082855 -2.7831096e-05
-9.7633536e-05 0.000116786665 6.595859e-05 -6.183298e-05 4.7205034e-05 -6.345099e-05 2.706441e-05 -9.119028e-05
-6.9704096e-05 5.354674e-06 -2.022301e-05 1.5625125e-06 5.7571157e-05 -8.5766405e-05 -0.0001031884 -3.8133363e-05
8.3537234e-05 -6.0008126e-05 -2.1697137e-05 3.2137872e-05 -2.5269753e-06 3.660407e-05 -1.3895334e-05 4.1384737e-06
-8.233677e-06 7.6523165e-06 3.7911497e-05 1.9103403e-05 4.6716028e-05 6.0749994e-06 -3.04958e-05 -1.8036588e-05
3.703657e-05 -2.063048e-05 2.5680067e-05 2.4421914e-05 -4.28807e-05 -1.0406917e-05 -1.5247004e-05 2.8565633e-05
-1.3183138e-05 -9.2138056e-05 6.5142696e-05 -9.157104e-06 1.8495986e-05 -4.9611517e-05 -4.9133065e-05 -1.6442192e-08
1.6003642e-06 -9.342704e-05 -1.7169777e-05 5.7483387e-05 7.704044e-05 9.428466e-05 4.668093e-05 1.26357745e-05
6.736703e-05 -5.1437564e-06 0.00018472635 -6.880232e-05 7.045923e-05 2.3516945e-05 8.468517e-05 1.5977977e-05
-3.3405802e-05 -0.00012160485 9.602415e-05 8.113589e-05 -5.858332e-05 8.0887614e-05 -6.807399e-05 0.00014295959
-6.15967e-05 -2.3695371e-05 -1.2756051e-05 -5.9737173e-05 -3.1064042e-06 1.338508e-05 -1.4053947e-05 3.5447643e-05
5.155071e-05 -1.5730891e-05 -0.00014022994 2.775084e-06 6.484857e-05 5.2400672e-05 1.7981765e-05 -2.837369e-05
-3.3103915e-05 -2.4729205e-05 1.2050706e-05 -8.070993e-05 -9.169969e-06 4.588357e-05 3.084952e-05 9.998888e-05
-4.256453e-05 -4.983784e-05 -8.006391e-05 -1.6655293e-05 3.0345533e-05 6.267126e-06 4.6969235e-05 1.6961294e-05
7.30187e-05 1.6133989e-05 6.946912e-06 0.00012295318 -0.00015314024 4.7763187e-05 5.0030474e-05 -2.7367809e-05
-6.195742e-05 0.00014188088 0.0001177632 -1.9076097e-05 1.8100429e-05 -0.00012450552 -3.9338265e-05 -4.8448244e-05
3.171197e-05 -3.3410874e-05 -0.00012261745 0.00016463737 -6.0464413e-06 3.524627e-05 -4.648909e-05 -0.00015694374
-0.00012053466 9.995027e-05 0.000102532715 -9.299186e-05 5.7687335e-05 -8.897294e-05 0.0001008957 -0.00017453241
2.3336013e-06 3.8108392e-05 3.1728727e-05 1.0696777e-05 1.3324388e-05 -4.9522932e-05 -6.449594e-05 3.6919772e-07
2.623682e-05 -4.5640532e-05 -4.5759825e-05 8.577086e-06 -1.93037e-06 3.1633204e-05 -1.8507599e-05 2.0893782e-05
7.694526e-06 -9.331552e-05 -1.5215742e-05 -4.7351157e-05 3.432877e-05 4.927368e-05 -4.4792356e-05 -0.00011919378
8.195496e-06 3.511219e-05 -6.43355e-05 7.567138e-05 0.00014704655 0.00018704908 -6.619056e-06 -0.000101209385
6.11779e-05 -7.8509285e-05 -4.1198193e-05 -4.807792e-06 -1.576229e-05 7.5452655e-05 5.1958955e-06 -5.003652e-05
-2.5795494e-05 6.8195855e-05 2.1070226e-05 -6.7080787e-06 2.9812816e-05 2.568242e-05 -1.934161e-06 -5.3867057e-05
0.00015966005 0.000110315224 -5.147103e-05 0.00013690519 -0.00016841294 8.136875e-05 0.00014919393 -0.00012075816
-6.219194e-05 0.00027861932 8.433945e-05 -6.704343e-05 4.300651e-06 -2.556666e-05 -0.00013332297 -7.426409e-05
-6.236861e-05 -2.4701014e-05 -5.5220057e-06 -3.4824603e-05 -3.951274e-05 3.1599055e-05 3.7279027e-05 3.0252704e-05
-2.9464882e-05 2.738196e-05 -6.626836e-05 1.0503464e-06 9.5760246e-05 3.210912e-05 5.1153413e-05 -6.125644e-05
5.4906945e-05 4.8396046e-06 4.3997585e-05 -5.7455063e-06 5.295515e-06 2.1769158e-05 -2.8962272e-06 2.4086387e-06
4.9001716e-07 -1.9163705e-05 3.7171645e-05 4.16586e-06 -6.0370123e-05 -3.877124e-06 -2.910528e-05 3.537894e-05
-7.700985e-05 -4.275985e-05 1.6890303e-05 -4.71315e-05 0.00011016964 -5.3817028e-05 -0.00016051407 6.811846e-05
-4.705034e-05 -0.00022113496 -9.247437e-05 -2.4218309e-05 1.7548797e-05 1.829063e-05 9.5830896e-05 3.8507926e-05

exp_avg_sq f4 [128, 16]
00000000: db4a 9433 953d 7b33 add7 c233 8c5f b733
00000010: 9a4d d733 3356 fa33 806a e033 667f 8733
00000020: 0167 b433 0026 de33 0f9d a733 c446 e933
00000030: 9361 ae33 729e a533 d526 7533 7f15 ab33
00000040: 6a80 ad32 1b3b 8c33 99ba 9933 7594 7c33
00000050: 5699 7133 1bc7 b733 5088 8033 bc22 9033
00000060: 626e 7733 e600 5833 9d88 2833 19ac 8733
00000070: 4425 1433 7dde 7133 ec3e 7e33 8cdc 4d33
00000080: f256 1933 0a0d 4a33 0aa5 7a33 2dd0 3133
00000090: 9719 3333 8fd4 8433 c5ec 5133 0b7a 8233
000000a0: add4 5533 ace8 7a33 f292 3d33 0f75 5c33
000000b0: 0b41 4233 43c1 5633 ff44 7833 b462 4533
000000c0: 6425 5f33 2bf8 8b33 e1a6 9133 f634 cd33
000000d0: af5c 8333 8161 8233 b504 c033 cd4e 3333
000000e0: bad4 f433 ee7e d033 5929 ba33 e541 b733
000000f0: f3c2 b233 bf16 e333 0468 1234 360a bb33
00000100: 6f3e 6a33 8940 cc33 338f a233 af77 ba33
00000110: 10c1 bc33 4bf5 e533 6840 b933 0eec 7433
00000120: 5a18 9c33 58cf b333 ce61 7833 a0ea 9d33
00000130: ea47 9333 73c2 8333 1f76 d533 3b6b bf33
00000140: 067f 1334 a75e bc33 a1f6 eb33 8a63 ad33
00000150: f54e d833 ad01 f133 d926 0134 58d1 4834
00000160: 624c 9933 32bb 9d33 723b df33 37de bb33
00000170: b0ec 1634 fa99 d633 5163 8633 6ca3 0534
00000180: 114c 8133 7d42 ad33 f0ba 1633 3cce 9d33
00000190: ab9f be33 afb1 8433 63a4 d032 af98 bf33
000001a0: aba3 3333 871b 9133 f802 8a33 5bf3 0933
000001b0: c30a 2333 3ad8 ac33 fe6e 7433 1663 8433
000001c0: 4ae6 c334 0e80 2634 2216 ee33 c9a1 2d34
000001d0: 21f6 3d34 0568 e333 5545 ee33 aee2 0434
000001e0: bb11 1534 6049 1734 0e5a 7434 5fad e933
000001f0: 3dae 9334 f9cb 5a34 311d d833 bf7b b433
00000200: f4c8 0835 4cbd 3334 6684 3034 0ac5 6c34
00000210: 8f4c 7d34 e42f 9134 9467 2d34 cde8 8134
00000220: d8ea 3134 c9e9 2334 0eb8 9034 515b 1d34
00000230: 19ab d934 c719 5534 8588 2f34 16cd 4634
00000240: 64eb b632 3768 2533 5cf5 1533 d49f 1833
00000250: 6209 1733 6151 0133 e134 ea32 a768 3733
00000260: bef3 ee32 b1de 0033 4ff5 fc32 8655 fa32
00000270: 2057 f032 d01c 3733 cf35 c132 16a3 3b33
00000280: a7d1 4133 073c a233 d395 9733 df17 ae33
00000290: 87e2 7533 4dab 8a33 fff4 ba33 b89a 7633
000002a0: c7fe 8833 253a b533 6d6c 9733 1379 8d33
000002b0: c5d2 7f33 76a3 9233 8769 a033 4d2c b933
000002c0: 3cd6 1533 3830 4933 0a12 2333 f854 0033
000002d0: b9b8 4f33 92c3 5e33 8aee 5333 da4a 3433
000002e0: 78ad 9033 b18a 2533 72a7 f832 31c5 5133
000002f0: cda4 6833 7ffe 1233 49cd b533 0915 ad33
00000300: b8dc ba33 e874 c933 5c22 1a34 c2b1 dd33
00000310: 6ed7 4634 f4ad ee33 7a78 0c34 8616 4934
00000320: 7ed8 ab33 088c 3834 076c fc33 0339 e233
00000330: 396e e433 749f f833 8d5b a933 1888 5034
00000340: a649 9c33 03ec 4f33 2a4c 0d33 5bc1 8933
00000350: 3fa7 4033 f7c9 4133 6e3c fe32 23b7 8133
00000360: ecad 6833 17b1 3233 d6f6 6333 f519 5033
00000370: d7be 3933 cfbd 8b33 6f66 6333 ee51 2b33
00000380: 96a9 1333 500c 5633 98b1 5833 64ba b233
00000390: 362d 1e33 14b2 4433 8d5f 3533 ff12 1433
000003a0: 9752 7933 b315 4c33 6757 6c33 a6c9 8833
000003b0: 9523 0833 a019 9833 a8f6 3533 75ae e932
000003c0: 0b5e 2334 5a10 0e34 2935 2434 7e30 db33
000003d0: 96f2 9d34 fc22 dd33 c442 2334 8431 6634
000003e0: c75f cf33 17c5 8334 efae 3c34 d312 fd33
000003f0: 742b 3c34 50a9 1134 736c 1934 c350 9134
6.905403e-08 5.84965e-08 9.07306e-08 8.5389814e-08 1.0025833e-07 1.1657212e-07 1.0450185e-07 6.309601e-08
8.4006395e-08 1.0344593e-07 7.805112e-08 1.086278e-07 8.120255e-08 7.712232e-08 5.7078825e-08 7.966718e-08
2.0198247e-08 6.530009e-08 7.1585596e-08 5.8808343e-08 5.6251643e-08 8.5578186e-08 5.9852596e-08 6.711841e-08
5.760956e-08 5.0292236e-08 3.9239797e-08 6.317732e-08 3.4492828e-08 5.6314537e-08 5.919621e-08 4.7930868e-08
3.5702165e-08 4.704365e-08 5.8357763e-08 4.140036e-08 4.169996e-08 6.185393e-08 4.8876945e-08 6.075796e-08
4.9786355e-08 5.8419275e-08 4.4138638e-08 5.1329206e-08 4.52283e-08 5.000153e-08 5.780475e-08 4.5957407e-08
5.195524e-08 6.5178334e-08 6.782444e-08 9.55569e-08 6.117022e-08 6.0713326e-08 8.941553e-08 4.1748354e-08
1.140083e-07 9.708843e-08 8.668821e-08 8.533588e-08 8.324232e-08 1.0574649e-07 1.363515e-07 8.7097234e-08
5.4539154e-08 9.511229e-08 7.5697606e-08 8.68307e-08 8.78955e-08 1.0708262e-07 8.626449e-08 5.7025368e-08
7.2687456e-08 8.373053e-08 5.7830952e-08 7.35356e-08 6.858302e-08 6.135533e-08 9.9400715e-08 8.913636e-08
1.3736653e-07 8.7716494e-08 1.0987902e-07 8.074046e-08 1.0072646e-07 1.1222742e-07 1.2028194e-07 1.870261e-07
7.138512e-08 7.344933e-08 1.039506e-07 8.748287e-08 1.4055945e-07 9.99316e-08 6.257927e-08 1.2446043e-07
6.020867e-08 8.0680344e-08 3.5094615e-08 7.348396e-08 8.876608e-08 6.1790494e-08 2.4289141e-08 8.9219036e-08
4.182554e-08 6.757096e-08 6.426666e-08 3.211913e-08 3.7961183e-08 8.0487055e-08 5.6911624e-08 6.1647526e-08
3.6489138e-07 1.5506541e-07 1.10867646e-07 1.6170738e-07 1.7691538e-07 1.0589432e-07 1.109535e-07 1.2375924e-07
1.3883157e-07 1.4089665e-07 2.2757033e-07 1.0881444e-07 2.750766e-07 2.0377037e-07 1.0063594e-07 8.4044125e-08
5.0956373e-07 1.673954e-07 1.6439444e-07 2.2050895e-07 2.3590313e-07 2.70432e-07 1.6149562e-07 2.4197507e-07
1.6569845e-07 1.5265609e-07 2.6956008e-07 1.4654985e-07 4.054389e-07 1.9846549e-07 1.634781e-07 1.8514797e-07
2.1294632e-08 3.851184e-08 3.491492e-08 3.553562e-08 3.516596e-08 3.0109167e-08 2.7265232e-08 4.270319e-08
2.7817688e-08 3.000486e-08 2.9448215e-08 2.9142722e-08 2.7979297e-08 4.2634213e-08 2.2492626e-08 4.3687656e-08
4.5126992e-08 7.554632e-08 7.058738e-08 8.1068485e-08 5.7249533e-08 6.457285e-08 8.7058645e-08 5.7417054e-08
6.379337e-08 8.439046e-08 7.051208e-08 6.5878474e-08 5.9563508e-08 6.828388e-08 7.469776e-08 8.622792e-08
3.488661e-08 4.6842814e-08 3.79678e-08 2.98796e-08 4.8363948e-08 5.1866273e-08 4.9344216e-08 4.1977593e-08
6.737076e-08 3.8543195e-08 2.8947145e-08 4.884095e-08 5.4166595e-08 3.4224737e-08 8.4658105e-08 8.0597665e-08
8.7014485e-08 9.381057e-08 1.4354868e-07 1.03234484e-07 1.851856e-07 1.11143805e-07 1.3082345e-07 1.8727778e-07
8.002188e-08 1.7187278e-07 1.17543145e-07 1.05343155e-07 1.0637127e-07 1.1577404e-07 7.886329e-08 1.942102e-07
7.277713e-08 4.8410595e-08 3.289839e-08 6.414731e-08 4.4855593e-08 4.512e-08 2.9596972e-08 6.040343e-08
5.417489e-08 4.1604917e-08 5.3077052e-08 4.845238e-08 4.3247237e-08 6.507218e-08 5.294572e-08 3.9888555e-08
3.4380342e-08 4.9836956e-08 5.045294e-08 8.322675e-08 3.682836e-08 4.5796767e-08 4.222925e-08 3.4476212e-08
5.8049945e-08 4.7517187e-08 5.5027524e-08 6.369673e-08 3.169733e-08 7.082713e-08 4.236668e-08 2.7204104e-08
1.521477e-07 1.3230729e-07 1.529303e-07 1.0206803e-07 2.9420033e-07 1.0297478e-07 1.5204847e-07 2.1438433e-07
9.6566104e-08 2.4544053e-07 1.7572505e-07 1.1784655e-07 1.7524673e-07 1.3565773e-07 1.4288689e-07 2.7067117e-07

exp_avg f4 [128]
00000000: 222c fab7 4917 0c37 7fcc 8238 fbcf b537
00000010: 64df 8bb9 53e8 78b8 52a6 b9b8 1db3 afb8
00000020: 24bd 5239 8fc8 2c37 9b35 0eb7 a7de 62b7
00000030: 4ae1 13b9 2402 91b8 3c96 23b8 f872 4839
00000040: e8bd 3639 6e7a 3138 643d 0db9 d6db ed38
00000050: eb71 2f38 695e 8ab8 9932 14b8 4bd4 69b8
00000060: 79f2 9738 ff31 7c38 3b22 92b9 6eb9 9739
00000070: fdb8 0e39 e7e0 3037 9ab6 d438 a3ce 9b39
00000080: a1c3 6f37 ef53 7339 9b96 1e39 51e6 9cb8
00000090: d7a7 1738 5e2c 91b9 f2a0 41b8 b809 3239
000000a0: e8b4 88b9 ffd5 6839 d30d 0e39 9277 84b8
000000b0: ba4e 75b8 9f7d 5239 032a f838 f797 a538
000000c0: 4da4 1e38 b2e9 ccb8 1ea9 0bb9 d5f0 25b8
000000d0: bdb9 9fb8 6e21 2938 cd21 0c38 dc8b d7b8
000000e0: 5326 8538 2ad0 36b7 ad05 8e38 44fa 25b9
000000f0: 7abf 4db9 8b9a 8d39 dc65 04b8 17f4 5eb9
00000100: 8252 5bb7 f65c 2439 0c42 dab8 ce84 c038
00000110: 5ab9 11b9 86c0 6b39 5ec5 9b38 370d 99b7
00000120: 2da5 0ab7 dbcc 5db8 cf3c cf38 3970 9fb7
00000130: cff0 9f39 5697 5539 0702 8737 8d3f 1cb9
00000140: e9fc 38b9 7485 4039 af3d 9bb9 2f0d e135
00000150: 2c89 2bb8 7cc2 8a38 71cb 1c38 e168 08b7
00000160: f9ce f2b9 82a1 9238 8ca2 3a38 08e3 8538
00000170: 83ac 4938 f04b 2a38 adce c538 7f93 9cb6
00000180: 39c6 f0b6 5de7 d0b7 9949 75b9 2c15 40b9
00000190: aa43 ca38 d70f 50b9 5f09 42b8 1ae0 f138
000001a0: 3a67 4a38 97dd 8338 1dc1 83b8 0934 bd38
000001b0: 6caa 8d37 6b5f c0b7 3f90 bb37 4e53 0cb8
000001c0: a3c3 9938 0fc1 a8b8 748c c137 5dd5 9338
000001d0: e6e6 3138 60db 54b7 f381 8838 f09a 16b9
000001e0: 5107 06b9 38a3 22b9 29fc d7b7 d37c 85b8
000001f0: c7f3 b238 d4ad 66b9 e515 78b8 2bc4 a238
-2.9822873e-05 8.350072e-06 6.2369734e-05 2.167373e-05 -0.00026678585 -5.9344176e-05 -8.852467e-05 -8.378013e-05
0.00020097621 1.0298695e-05 -8.476341e-06 -1.352249e-05 -0.00014102939 -6.9145375e-05 -3.9002145e-05 0.00019116316
0.00017427618 4.231411e-05 -0.00013469678 0.00011341988 4.1829346e-05 -6.597938e-05 -3.5333072e-05 -5.5749242e-05
7.245405e-05 6.0128044e-05 -0.00027872794 0.0002893912 0.00013611089 1.0542782e-05 0.0001014296 0.0002971786
1.42910585e-05 0.00023205554 0.00015124159 -7.4815594e-05 3.615752e-05 -0.0002768961 -4.6164678e-05 0.00016979023
-0.00026074727 0.00022204964 0.00013547325 -6.316522e-05 -5.848587e-05 0.00020073958 0.00011833387 7.896119e-05
3.7823153e-05 -9.771007e-05 -0.00013319074 -3.9563358e-05 -7.616307e-05 4.0323874e-05 3.341008e-05 -0.0001027805
6.349073e-05 -1.0896512e-05 6.772145e-05 -0.00015828857 -0.00019621654 0.0002700876 -3.1566116e-05 -0.000212625
-1.3072628e-05 0.0001567489 -0.00010407352 9.18001e-05 -0.00013897326 0.00022483067 7.4277385e-05 -1.8245175e-05
-8.263899e-06 -5.2881293e-05 9.881856e-05 -1.9006535e-05 0.0003050626 0.0002036964 1.6094198e-05 -0.00014900994
-0.00017641824 0.00018360262 -0.00029609862 1.6767643e-06 -4.089733e-05 6.616578e-05 3.7382768e-05 -8.130651e-06
-0.00046312044 6.991906e-05 4.449724e-05 6.384222e-05 4.80828e-05 4.060188e-05 9.4321884e-05 -4.666333e-06
-7.1756335e-06 -2.490327e-05 -0.00023392438 -0.00018318434 9.644714e-05 -0.00019842327 -4.6261932e-05 0.00011533518
4.825669e-05 6.287841e-05 -6.282537e-05 9.0219146e-05 1.6887869e-05 -2.2932616e-05 2.2359307e-05 -3.3456185e-05
7.332049e-05 -8.046824e-05 2.3072796e-05 7.049248e-05 4.241513e-05 -1.2687262e-05 6.50919e-05 -0.00014362833
-0.00012781961 -0.00015510328 -2.5747418e-05 -6.3651845e-05 8.5331085e-05 -0.00021999265 -5.91482e-05 7.761301e-05

exp_avg_sq f4 [128]
00000000: 0fff ba33 81f5 7033 7817 7333 76b9 9b33
00000010: 1adc d733 4d6b d533 053b 8d33 01e9 e733
00000020: a51b 7f34 4276 c532 d025 9a33 e5f1 4533
00000030: 8b06 ff33 8e73 4733 c6d4 3a33 d1f3 2234
00000040: ad41 f933 d439 7e33 266d e433 4743 e433
00000050: 5acd eb32 a1e8 a933 1629 5133 bb55 5333
00000060: ef53 9433 3556 7b34 e2a0 5534 c338 c234
00000070: e868 c933 5a69 9833 5426 b333 69fe 9e34
00000080: f7dd b333 9097 3b34 00b9 9733 5a00 b533
00000090: 53c4 b033 b533 5f34 e7c2 f432 fa58 2634
000000a0: ee4b 1d34 73af 5934 85a0 2134 68b2 5b33
000000b0: 9f4b 4433 96ae 4234 f809 b633 c163 3634
000000c0: f8d5 3d33 dbcc c033 0295 cc33 47cb 9633
000000d0: 1af1 8f33 db48 3833 f678 9433 2314 8733
000000e0: 29de e933 4aa5 1933 41b8 b733 d935 4a33
000000f0: b8ac d633 eec7 1934 d89b 9533 6401 ca33
00000100: 71ce 5533 5df3 0a34 ab0e 6a33 0c38 c933
00000110: 7b07 e833 f204 5734 6645 4433 5ed6 7933
00000120: 4ba8 a433 1dcd 6b33 4b4b 5733 0675 c933
00000130: b77c 6634 f118 b634 7ec5 a933 d80c da33
00000140: 2712 1634 f1e2 b033 973e 2a34 0981 6533
00000150: 0798 4233 6b5a cc33 0c68 0e33 c1f7 cf33
00000160: 9919 2c35 ac00 0f33 5091 cb33 b10e b033
00000170: ea16 9033 4ebc 8633 3c36 a933 fafc 5a33
00000180: 7fb9 2233 7ad1 9c33 60aa 5734 514b d833
00000190: 8ff9 6133 efb5 7434 8f9b e733 f24d f533
000001a0: d812 2f34 cdda 7433 e4d4 a933 261a 6234
000001b0: 7988 1434 9780 a033 8a42 2433 34eb 3433
000001c0: f008 4c33 a825 bc33 01f2 1c33 31f2 8d33
000001d0: 799a 8433 6c85 4c33 d57a ed33 15f0 d033
000001e0: 7006 c133 7884 d233 6ee0 1033 e170 2e33
000001f0: 845c 8933 640e 8e34 1afa 1a33 833a 0634
8.707695e-08 5.610264e-08 5.659919e-08 7.251485e-08 1.0051754e-07 9.938103e-08 6.57656e-08 1.0799159e-07
2.3758783e-07 2.2987596e-08 7.178062e-08 4.608764e-08 1.1875553e-07 4.6438394e-08 4.3500016e-08 1.5176126e-07
1.16069124e-07 5.9191578e-08 1.0636931e-07 1.0629315e-07 2.7450984e-08 7.911991e-08 4.8698972e-08 4.9205237e-08
6.9070545e-08 2.3407559e-07 1.98957e-07 3.6176615e-07 9.378874e-08 7.097215e-08 8.342309e-08 2.96149e-07
8.375712e-08 1.747087e-07 7.065137e-08 8.428533e-08 8.23135e-08 2.0787304e-07 2.849397e-08 1.5492324e-07
1.4649387e-07 2.0273528e-07 1.505269e-07 5.115217e-08 4.5703583e-08 1.8131172e-07 8.476849e-08 1.6986361e-07
4.4199595e-08 8.97796e-08 9.5265946e-08 7.021895e-08 6.7028125e-08 4.29071e-08 6.91379e-08 6.29009e-08
1.0890319e-07 3.5773418e-08 8.555117e-08 4.7080764e-08 9.996569e-08 1.432197e-07 6.966701e-08 9.406611e-08
4.9780684e-08 1.2940787e-07 5.449571e-08 9.369987e-08 1.08047026e-07 2.0025234e-07 4.5697924e-08 5.8169796e-08
7.6674574e-08 5.490175e-08 5.0127067e-08 9.381078e-08 2.146579e-07 3.391829e-07 7.9055994e-08 1.0153752e-07
1.3976442e-07 8.236919e-08 1.5855254e-07 5.3435574e-08 4.5307413e-08 9.515937e-08 3.315658e-08 9.684255e-08
6.411224e-07 3.3295393e-08 9.479356e-08 8.198311e-08 6.7096906e-08 6.274114e-08 7.879541e-08 5.098716e-08
3.7887272e-08 7.30242e-08 2.0085417e-07 1.0071984e-07 5.2613867e-08 2.2790458e-07 1.0785072e-07 1.142288e-07
1.6305e-07 5.7009675e-08 7.9084e-08 2.1057403e-07 1.3833223e-07 7.473971e-08 3.8244742e-08 4.2123432e-08
4.750558e-08 8.761282e-08 3.654168e-08 6.6098785e-08 6.1748274e-08 4.7618798e-08 1.10585155e-07 9.7294254e-08
8.988434e-08 9.802983e-08 3.373173e-08 4.0615195e-08 6.396388e-08 2.6460032e-07 3.6083385e-08 1.2501009e-07
