Specific task/Task_3/generator.pth (torch, 257094 bytes, 18 tensors)

layer1.weight f4 [128, 16]
00000000: 635e 09be 584f 8ebd e807 303e 4ecd d1be
00000010: d022 e63e 570e 96be 8c72 323e cec1 7e3e
00000020: 2532 8cbd 49fa 2bbe a627 0c3e 1c93 ba3d
00000030: 596d 13be 694d 83be 1128 3e3e 6786 7fbe
00000040: 30aa 0f3e 37e3 cdbe a182 91be eaf1 3cbe
00000050: 1b73 563d c07c d73d 547f 60be ad8d 59be
00000060: 6f19 0cbe e3de 86bc 026c 973e 00b7 b13e
00000070: 72db a8be 5234 613c 1a16 c4be 7f0e c63e
00000080: 5bbc b93d a335 893e 046a 923e 7fc6 9fbd
00000090: 698e c23e 87e6 3e3c c35d 4ebe 23d7 7cbe
000000a0: 677f a3be e37d 703e 71da 34be 790e 4a3e
000000b0: 4571 293e a068 c1be cc92 313e 789a 913e
000000c0: e4b3 9fbd 8695 e4bc 5adf 7c3d 4d4a 653e
000000d0: c5bb e9be ea80 95be 86e6 21be 982d 98be
000000e0: 25bc 9d3d 0d72 a2bd e87e d1bd 7fb2 c9be
000000f0: 5076 c2be 4e7f 9e3e bf7b 5c3e 628b 4e3e
00000100: 91fe 133f 1caa 4abe 5097 4bbe 9169 27be
00000110: 2410 1cbe ee24 053e f3b2 473d 30a4 023f
00000120: 0a5f e4bd 91a0 b93e 5859 48bd 1d6e 253e
00000130: f753 fbbd f654 f6be 8b13 03be d665 933c
00000140: 99b9 86be 9a02 99be 96b0 09bd f809 d23e
00000150: 1540 0abc 1c90 a43d 138e a4bd 7e3d ce3e
00000160: 49e4 723e 35cd 9d3e 3532 d9bb 6cb0 1a3d
00000170: 9fcf 21be 09bd 95be b084 52be cb8d 063e
00000180: 3976 efbe 952b e23d 6b45 83be 4677 c13e
00000190: 4999 393e 5ab2 d3bd 7e3e 0fbe 81f0 8d3d
000001a0: d93e 9f3a 0f90 bebd 2230 af3e 6867 ee3c
000001b0: 9503 6cbd 0fe1 273e c457 583e e204 49be
000001c0: 889f aa3d 824b 9b3c 6b59 b4be 527b a8bc
000001d0: 84cc 1d3e ea7f 77bd 38bb 573d f103 293e
000001e0: a7f5 2cbe d4a1 a93d 45b0 ae3e 05e1 c83e
000001f0: 496f b33d 8c52 3d3e 495e b73d c7d2 743e
00000200: 5f57 7b3d 659f 34be 0ef6 ea3e ef7d 58be
00000210: 5ebe 5d3d 0f2f 7dbe 0f94 893e 64cd 67be
00000220: 2329 f53d 6b4b eabe c842 f7bd 2b28 c9be
00000230: 501a 27be 06dc 8d3d c56b d4bc 4155 b1bc
00000240: 3414 c8bc fb71 b63d a3f5 d43d 8563 6d3e
00000250: ac5c 54be 8140 be3e 5142 2dbc 10bc 0fbf
00000260: effc bdbe 6eb9 33be f0e8 8dbe 0239 1e3c
00000270: e585 a4be 3695 053e d3f2 01be e7c5 80bd
00000280: 8cbd 033d 7f12 65be 2dbe a9be 1150 dc3e
00000290: 90ac 1dbf 9048 8bbe c147 193e 7da4 0b3c
000002a0: 3cbb 3fbe 4a8a e1be a8b9 51be 8630 9dbd
000002b0: fbab 12be 658f 513e 306e cc3d 3229 163e
000002c0: 7c1e 9b3e 6b9b 26be def5 a73e 08e2 703e
000002d0: 9b5b dc3e e1fc 6fbe c3bb 273e 32b9 1e3d
000002e0: 6efe 663e d640 a33e 1302 d8bd a982 373c
000002f0: df0a c3bd 2291 a73e a1f6 493d 54e4 053d
00000300: 29bf c3be 9e38 b53e edea fbbd 0f17 e93e
00000310: 8683 8cbe 302a f63d 2e81 943e 83da eebe
00000320: 1c4a aabe b143 f63c da91 5dbe b8b6 1abe
00000330: cec3 3abd 5a07 c83e 8b0a 893d df42 de3d
00000340: cf23 6a3e 5ca1 bd3e 557b 01bd 370f dc3d
00000350: 603c 6b3e b077 c73c ffaa a3bd 66d6 ac3e
00000360: e9d8 64be 46ce edbd 4f66 2dbe 8c8d ac3d
00000370: d6fe ab3d 5192 15be 3999 e43d a1d1 5cbe
00000380: 94e0 d4be 3669 f33d 2d12 57be 84a0 87be
00000390: d5f4 9f3d 971f 96be 446d 253f b4e6 0e3e
000003a0: bcdd 3fbe 5490 f6bd c4f0 993e f3c8 11be
000003b0: 5172 d73b de18 11be 3ee2 0cbe faaf f2bd
000003c0: 1020 c8be 6cab 5ebe f300 40be 7f0f a83e
000003d0: 3848 3d3e 1929 85bd 57ee fc3c 94cd 813c
000003e0: 5e18 d93e 440e 9b3e ee23 973e 4491 8abe
000003f0: e3ea c1be 98a3 8a3e 5082 873c 297f 24bc
-0.13414912 -0.06948727 0.17190516 -0.40976948 0.44948435 -0.29307815 0.17426509 0.24878618
-0.06845502 -0.16794695 0.13687 0.0911009 -0.14397182 -0.25644997 0.18569972 -0.24953614
0.14029765 -0.40212414 -0.28419974 -0.18451658 0.052355867 0.10521841 -0.21923572 -0.21245451
-0.13681577 -0.016463703 0.2957459 0.3470993 -0.32979923 0.013745384 -0.38298112 0.38682935
0.09069129 0.26798734 0.28596509 -0.07801532 0.37999275 0.011651642 -0.20152955 -0.24691443
-0.31933138 0.23485522 -0.17661454 0.19732083 0.16547115 -0.37775135 0.17341155 0.28438163
-0.07797983 -0.02790333 0.061736442 0.22391625 -0.4565107 -0.29199916 -0.15810594 -0.29722285
0.07701901 -0.0793191 -0.102292836 -0.39393994 -0.3798089 0.309565 0.2153158 0.20170358
0.5781031 -0.19791454 -0.1988194 -0.16348864 -0.15240532 0.13002369 0.048754644 0.5103178
-0.1115094 0.36255315 -0.04891333 0.16155286 -0.122718744 -0.48111695 -0.12800424 0.017992895
-0.26313475 -0.29884797 -0.03361567 0.4102323 -0.00843813 0.08035299 -0.08034911 0.4028129
0.23719896 0.30820623 -0.0066282996 0.037765905 -0.15801857 -0.29245785 -0.20558429 0.13140027
-0.46769884 0.11043469 -0.256389 0.3778631 0.1812488 -0.10336752 -0.13988683 0.06930638
0.0012149467 -0.09304821 0.3421641 0.029102042 -0.057620604 0.16394447 0.2112723 -0.19630769
0.083312094 0.018956903 -0.3522447 -0.020566616 0.15410048 -0.060424723 0.05266878 0.1650541
-0.16890584 0.082828194 0.34118858 0.39234176 0.0876146 0.1848852 0.0895353 0.2390853
0.06136262 -0.17638929 0.4589085 -0.2114179 0.054136626 -0.24724983 0.26870772 -0.22636944
0.11970737 -0.45760664 -0.120732844 -0.39288458 -0.16318631 0.06926732 -0.025930295 -0.021647098
-0.024423696 0.08908459 0.10398414 0.23182495 -0.20738477 0.37158588 -0.010574893 -0.56146336
-0.37107036 -0.17551205 -0.2771678 0.009657146 -0.32133403 0.130452 -0.12690286 -0.06287747
0.032163188 -0.22370337 -0.33152905 0.43029836 -0.61591434 -0.27203798 0.14968778 0.008523104
-0.18723768 -0.4405082 -0.20480978 -0.07675271 -0.14323418 0.20464857 0.09981954 0.14664152
0.30296695 -0.16270225 0.3280477 0.23523724 0.4303864 -0.2343631 0.16380219 0.038750835
0.22557995 0.31885403 -0.105472706 0.011200585 -0.09523558 0.32727915 0.04930747 0.032688454
-0.3823178 0.35394758 -0.12300668 0.45525405 -0.27444094 0.120197654 0.29004806 -0.46651086
-0.33259666 0.030061575 -0.21637669 -0.15108764 -0.04559689 0.3906811 0.06691464 0.108525984
0.22865222 0.3703717 -0.03161176 0.107450895 0.2297225 0.024349064 -0.07991599 0.33757323
-0.2234837 -0.11611609 -0.16933559 0.084254354 0.083982155 -0.14606597 0.111620374 -0.21564342
-0.4157759 0.11885302 -0.21003027 -0.2648965 0.0781037 -0.29320976 0.6461985 0.13955194
-0.18736929 -0.12039247 0.30066502 -0.14236812 0.006574907 -0.14169642 -0.1375818 -0.11849971
-0.39086962 -0.2174508 -0.18750362 0.32824323 0.1848458 -0.065019794 0.030875368 0.015845098
0.42401403 0.3028432 0.295196 -0.27063954 -0.37874517 0.27077937 0.01654163 -0.010040083

layer1.bias f4 [128]
00000000: edc8 11bf c460 06bf 684a 04bf eef5 77bd
00000010: b97c 24bf 8807 9dbe c851 21be 375c 7dbe
00000020: 7e8b 5fbe 5e6f e7be 09db f1be e958 10bf
00000030: 72ec eabe ba03 2abf 8bb9 93be 786b 43be
00000040: aa35 ebbe a60d f7be 0dd0 d5be 73bc 1abf
00000050: 61e2 27bf 5337 17bf d530 01be 49b0 1bbf
00000060: 00c1 fbbe 1346 f1be 9d09 00bf 07d8 11bf
00000070: 6f0f 0ebf 9d29 ddbe 741c 00bf eeed c9be
00000080: 3a12 82be 4b31 5fbe c11b 9ebe 4042 01bf
00000090: 4919 0abf e058 0fbf 9214 ffbe cb24 13bf
000000a0: 6204 2fbf 89cb 14bf c1a3 50be ff05 a3be
000000b0: 441e e8be d212 e8be b495 24bf 0b73 89be
000000c0: 6c4b 15bf f9db 1fbf 8e98 bfbe 527e 05bf
000000d0: c795 f6bd 098e debe 34dd d2be d8e9 17bf
000000e0: eb73 1bbf fcb7 01bf ee4b c2be debd 07bf
000000f0: 100c 9bbe 79c3 cdbe cc2f bebe 3de2 c1be
00000100: 8921 8ebe cb74 42bf 34be 41bf aa5c a1be
00000110: 7c02 0ebf 0c6d 72be 56ac ddbe 402d 0cbf
00000120: f148 44bf 2bd8 dfbe 5a3a a4be c5a1 12bf
00000130: e03e 2dbe d949 26bf 39b8 a0be aff9 99bd
00000140: 7025 13bf 5b41 f8be 95b2 fbbe 9883 44be
00000150: ed3d eebe 2d78 99be a7f2 93be 0b73 2cbf
00000160: 11d8 00bf c754 67be 7e89 eabe 47dd 67be
00000170: fd72 edbe e36c bcbe f9d4 28be 0cca f3be
00000180: 9445 dcbe 4c48 28bf 56d1 05bf 849c 16bf
00000190: 347c 07bf c284 16bf 08aa 28be 2c47 9bbe
000001a0: b124 2abe a492 d9be 9814 2fbf 1831 0abf
000001b0: 57a2 c3be 4cff 1bbf 7c61 dabe 39b5 cdbe
000001c0: ead3 e1be ec65 02bf 54c4 10bf 12cc 30be
000001d0: 947b cdbe a989 22bf 0c2f 1ebf 9f75 c9be
000001e0: 9a0f d0be 2b45 00bf d44b 10bf 4c0e 3cbf
000001f0: ed9f dcbe 793c 54be 577b 06bf eeda 72be
-0.56947213 -0.524914 -0.51676035 -0.06053727 -0.6425281 -0.30669808 -0.15753853 -0.24742208
-0.21830556 -0.45202154 -0.47237423 -0.56385666 -0.45883518 -0.66411936 -0.28852496 -0.19083965
-0.4593938 -0.482526 -0.41760293 -0.604438 -0.655798 -0.59068793 -0.12616284 -0.60815865
-0.49170685 -0.47123775 -0.5001467 -0.56970257 -0.554923 -0.4319581 -0.50043416 -0.39439338
-0.2540453 -0.21796148 -0.3088055 -0.50491714 -0.5394483 -0.5599499 -0.4982038 -0.57478017
-0.6836606 -0.5812307 -0.20374967 -0.31840512 -0.4533559 -0.4532686 -0.6429093 -0.26845583
-0.5831821 -0.62445027 -0.37421077 -0.52145875 -0.120402865 -0.4346774 -0.4118439 -0.5934119
-0.6072375 -0.5067136 -0.37948555 -0.5302409 -0.3028264 -0.40188196 -0.3714584 -0.3786792
-0.2775996 -0.7595946 -0.7568085 -0.3151601 -0.5547254 -0.2367441 -0.43295544 -0.54756546
-0.766738 -0.4371961 -0.3207577 -0.5727809 -0.16918516 -0.6495643 -0.3139055 -0.075183265
-0.57479 -0.48487362 -0.49159685 -0.19190824 -0.4653162 -0.299745 -0.28896067 -0.6736304
-0.5032969 -0.22590934 -0.45808023 -0.22643004 -0.46376792 -0.36801824 -0.16487493 -0.47615087
-0.43021834 -0.65735316 -0.52272546 -0.58832574 -0.52923894 -0.5879632 -0.16471112 -0.30327737
-0.16615559 -0.4249469 -0.683908 -0.5398116 -0.38209793 -0.6093643 -0.426525 -0.40177324
-0.4410699 -0.5093677 -0.5654957 -0.17265347 -0.40133345 -0.634913 -0.6179054 -0.3934755
-0.40636903 -0.5010554 -0.56365705 -0.73459315 -0.43090764 -0.20726193 -0.5253195 -0.23716328

layer2.weight f4 [128, 128]
00000000: 29c9 87bc abdd 2ebd 6e96 80bc a756 98bb
00000010: 760f 05be caa9 d7bd 4d8d 48bb 5d1c b5bb
00000020: 83b0 34bc 3d6b 8bbc a20b 9fbd 37c2 cb3c
00000030: 258a d0bd 10b9 48bd ce97 59bd 7f6e 853d
00000040: 6e04 9bbd f760 c2bb c4af 01bd e2b4 ccbc
00000050: 1ade 29bd d41f cabd 9ed8 65bd ba7b 9ebd
00000060: d101 213d 9cf3 63bc 7959 c2bd 9ffe 1f3d
00000070: 8f1a abbd 8c18 72bd 368d 36bd 065d fabd
00000080: c43b 82bb 0d2c 323d b323 74bb 934b 2c3d
00000090: 2295 7eba 32f1 c5bd 4788 28bb 3394 3f3d
000000a0: b65c c5bc 0e97 d4bd 42bb c73b a435 45bd
000000b0: 66ac 75bd eba8 44bd 0432 bfbd 3f87 e5bd
000000c0: 75b5 54bd 0b7a be3c b0a2 5e3c 536b bbbc
000000d0: 333f 3bbd 02af b8bd 42f2 bfbd 2afc aabd
000000e0: 7066 293d 4ad6 463c ba9d 2dbd 9d04 b2bd
000000f0: 1e07 6abd d82a febc 8240 92bc 59f2 5bbd
00000100: 9814 8fbd 4118 68bd f4ee f53c ed99 8abb
00000110: 77e9 cbbd 27f5 f83c ee10 c1bd 53e3 8e3c
00000120: e5e5 42bd 0d83 62bc 89f7 213c 128a 55bd
00000130: 301b 2abc 6bf5 ab3b 5494 8cbd 9b46 c5bb
00000140: a9b6 8bbd 14f0 9fbd 75fc e9bb d764 32bd
00000150: 9c33 39bd 6b8f adbd e737 913c 588a 08bc
00000160: d8f2 2e3d aca1 593d ffca dabd 53c0 f53c
00000170: f9e5 31bd 7dc2 0ebd 8ca3 1abd acf0 cc3c
00000180: ce31 a83d 9de4 1abd fa8b b4bc ee4c 07be
00000190: 28fa 863d d01f 2cbd 3b59 bdbd 8fcf c33c
000001a0: 35b8 d13c 25af 16bd 083d 263d cc66 a5bd
000001b0: f6d3 40bd dfab c3bc f966 abbc d062 92bc
000001c0: ee81 3b3d 0ad4 56bc 1ba4 17bd c6b6 2fba
000001d0: 3af8 81bd 696a edbd 530e 193d b5cc 8cbd
000001e0: c146 873c 11b7 86bd a77b 42bd 73f5 60bd
000001f0: de38 0c3d e30e b43b a134 0a3d ebc5 d4bd
00000200: 124f e8be db0f e3be 8904 bcbe 00b6 aabe
00000210: ada1 80bd c2d0 8cbe 281a 0cbd fe34 713e
00000220: 0584 8f3e 34f4 85be df87 98b9 7789 e23d
00000230: 1427 923d a2a9 a4be e657 603e e66b 95bb
00000240: 8a00 c5be 1d7e 63be d6cc 95be 4fb4 23be
00000250: 34f6 dd3c 419e 813e ad4b b4be ab83 413e
00000260: 1c0e 733e 76f1 bf3e 8050 5f3e b3b0 19bf
00000270: 62f9 4c3d 4c92 a43c ddcf 0fbd 618b a4be
00000280: e5bb 8c3e 6f7e b4bb 48cb bbbe 51ea 0bbf
00000290: a00f 993e 31b2 673d 3823 a7be ebb9 1bbf
000002a0: c393 ecbe c09f 0fbf 5e9a afbd 26aa 97be
000002b0: 4eef 2ebf fe3f 323e e8fb 2ebf 07b7 973e
000002c0: eaf0 e03e 858b d63e 1419 953d 80f4 3a3e
000002d0: 4d71 c3be b4ac 883e f409 343e b2d2 75be
000002e0: 58a5 34bf e338 a8be 1ec9 ff3d c1ca 1cbf
000002f0: a267 5f3e 54ad 3cbf a588 27bf 1fc4 13be
00000300: 5947 823e 7834 ee3e d566 ffbe dcb8 39be
00000310: 8648 1cbf 8b3c 98be 61d4 9b3d 9fd8 98be
00000320: c089 d6be 8b6c 84bf 15f0 dcbe 41ad 8d3e
00000330: 0ec5 8ebe 3fb1 a2bd 19ec 84bf d94f 993d
00000340: dc99 3cbe e25c 0ebf 928d 87be 37b7 4d3e
00000350: 265b 4b3e 5532 debe bf1a a7bc 99fb 453d
00000360: fc04 883c 0ca3 62bf 336b b63c 80ca 47be
00000370: 4ae5 863e 8cdb 1abe 19e9 a9be 63f5 bbbe
00000380: 751f 29be c836 2e3e 4a0f 8bbe 8abc 65be
00000390: 3507 3a3c e591 96be 2133 05be 0d35 8cbf
000003a0: e02a b1bd cc11 e23c 2ac0 b5bd 873d 123d
000003b0: a2b1 86be d4dc 91be b504 98bc 7f1d 1cbe
000003c0: 9e65 42bd 2883 723d b99c 3b3c ce30 eb3d
000003d0: c745 d5be 81c7 64be f2e5 26bf faef 5abe
000003e0: 6f98 5ebe e534 15bf 7db6 013e 410c cdbe
000003f0: 98a2 2f3d 40a5 da3d fdbc fbbd e345 65be
-0.016575413 -0.042691868 -0.01569673 -0.0046490016 -0.12994179 -0.105304316 -0.00306018 -0.005527063
-0.011028412 -0.017018909 -0.07765891 0.024872882 -0.10182599 -0.049004614 -0.053123288 0.06515216
-0.07569204 -0.0059319693 -0.031661764 -0.024988595 -0.04147158 -0.09869352 -0.056114785 -0.07738443
0.039308373 -0.0139130615 -0.09489722 0.039061185 -0.08354675 -0.05910544 -0.044568263 -0.12224774
-0.00397441 0.04349904 -0.0037252724 0.04206426 -0.00097115536 -0.09665145 -0.0025715993 0.046772193
-0.02409206 -0.10380374 0.006095321 -0.04814686 -0.059978865 -0.048012655 -0.093357116 -0.11207437
-0.051930863 0.023251554 0.013588592 -0.022878325 -0.04571457 -0.09017755 -0.09372379 -0.08348878
0.041357458 0.012136051 -0.042386748 -0.08692286 -0.057135694 -0.031026289 -0.017853025 -0.053697918
-0.0698635 -0.056663755 0.030021168 -0.004229775 -0.09956639 0.030390335 -0.09427057 0.017442381
-0.047582526 -0.01382519 0.009885677 -0.052133627 -0.010382459 0.005247762 -0.06864229 -0.0060203797
-0.06821949 -0.07809463 -0.007140691 -0.0435532 -0.045215234 -0.084746204 0.017726852 -0.008333765
0.042712063 0.053132698 -0.1068325 0.029998934 -0.04343221 -0.034853447 -0.037753627 0.025017105
0.082126245 -0.03781568 -0.022039402 -0.1321294 0.06590682 -0.042022526 -0.09245535 0.023902683
0.025600532 -0.036788125 0.040585548 -0.080762476 -0.04707714 -0.023885665 -0.020923125 -0.017869383
0.045778207 -0.0131120775 -0.037021738 -0.00067029556 -0.063461736 -0.11592562 0.037367176 -0.06874982
0.01651323 -0.06577886 -0.047481205 -0.05492158 0.03423392 0.0054949387 0.033741597 -0.10389312
-0.45372826 -0.44348034 -0.3672221 -0.3334198 -0.06280837 -0.2750302 -0.034204632 0.23555371
0.2803041 -0.26162875 -0.0002909293 0.110613756 0.0713636 -0.3216067 0.2190853 -0.0045599816
-0.38476974 -0.22216077 -0.2925784 -0.15986751 0.027094938 0.2531605 -0.35213986 0.18897884
0.23735851 0.37488908 0.21808052 -0.60035247 0.050042517 0.020089291 -0.035110343 -0.32137588
0.27487102 -0.005508236 -0.3667853 -0.54654413 0.29894733 0.05656642 -0.32644057 -0.60830563
-0.46206483 -0.56103134 -0.08574365 -0.29622 -0.683339 0.17407224 -0.6835313 0.29631826
0.43933803 0.4190332 0.07280174 0.18257332 -0.3817238 0.26694262 0.17581922 -0.24006155
-0.70564795 -0.328559 0.12489532 -0.6124688 0.21816877 -0.7370198 -0.6544288 -0.14430283
0.2544506 0.46524405 -0.49883142 -0.18136925 -0.6104816 -0.2973369 0.076088674 -0.2985277
-0.4190197 -1.0345625 -0.43151918 0.27671245 -0.27884716 -0.07943963 -1.0384551 0.07485933
-0.18418068 -0.5561048 -0.26475197 0.20089422 0.19858989 -0.43397775 -0.020398496 0.048335645
0.01660394 -0.8853004 0.022267913 -0.19510841 0.2634681 -0.15122813 -0.33185652 -0.36710653
-0.16515906 0.17013085 -0.27160102 -0.22435203 0.011354257 -0.29408184 -0.13007785 -1.095369
-0.08650756 0.027596377 -0.08874543 0.03570321 -0.26307398 -0.2848879 -0.018556932 -0.15245627
-0.04746019 0.05920711 0.01145094 0.11483918 -0.41654798 -0.2234173 -0.6519462 -0.21380606
-0.21737836 -0.58283836 0.1266727 -0.4004841 0.04287967 0.1067605 -0.12291906 -0.22389941

layer2.bias f4 [128]
00000000: a600 a0bd 3b4f ac3d 6d76 8dbd d0ba e5bd
00000010: 40dc 83bd 9241 94bd 3a3c 143e 0082 283e
00000020: 9383 1bbe e3d1 593e b480 1fbe 85bd f03e
00000030: d917 11be a824 e33e 57bc 05be da91 9a3d
00000040: 9574 fbbd 8d4e ffbd efff c2bc fd74 0d3d
00000050: d421 6bbd 7acc 033e 8d2c 033c 3e0e b3bd
00000060: 3ef4 0cbd 4b16 4cbd e078 aebd 4608 a0bc
00000070: 1edf 7abd a5ba df3e dedb a7bd 4864 7cbd
00000080: 5184 21be 2a8d ff3c 1641 28be 1389 14be
00000090: 69fa cc3d 6991 0fbd 18bc 0fbe 01fb bcbc
000000a0: 1422 1ebe bfb2 0bbe 8b1e acbd 933a 093e
000000b0: ec9b 55bd 9c6d a6bd ca2e 98be 24ee 0fbe
000000c0: 3a72 babd 83d5 073e c0a1 f5bd 3445 dbbd
000000d0: 80ce eb3c f3e6 c43e 3c54 fabd 9d8a 11bd
000000e0: 8f47 78bc 0757 08be e1f0 73bd 6fbc 7dbd
000000f0: 4d6f 10be 2e3b 903d af70 8f3e 635f 8d3d
00000100: f83c c53e 8977 203a 8875 8d3d 5a76 fdbd
00000110: 8cf7 c63d 05a7 273e b23a 0cbe 499e 09be
00000120: bdea 2fbe fddc d43d 4f88 94bd 8091 afbc
00000130: 1e85 04be 7324 833e 2cfd a1bd a75f 8e3e
00000140: 66bc ca3e a901 433c 45e6 d5bc 87a4 86bd
00000150: d8fc 49be a2b3 0abc 6add f9bd 7811 d93e
00000160: e5a0 513e 8370 233e 0cc9 b03c e76d 7d3d
00000170: febb b2bd de2a d33d f97d 333c 2f21 78be
00000180: 620d 02be 6fee c9bd 18c6 643e ad00 ae3d
00000190: 1020 f8bd d1b6 1b3e 8b1d 00be 6231 653d
000001a0: 56f3 023f 4576 07be bcfe 81be e244 523e
000001b0: 0635 dc3e a0ef 0fbe 45a4 a9bd 60d3 e4bd
000001c0: bab7 c3bd ef0c 713e f9ed 7abd ffc6 cb3e
000001d0: 6cdd 833e 8f7b 8e3d a8e0 88bc f508 bdbd
000001e0: d36e c63e 8dca 3dbd fea3 31be 7bee ac3e
000001f0: 5196 f0bd 3aa5 183e 30d0 0d3e 70d1 8fbd
-0.07812624 0.084135495 -0.069073536 -0.11217272 -0.06438494 -0.07239069 0.144761 0.16455841
-0.1518691 0.21271472 -0.1557644 0.47019592 -0.14169253 0.44363904 -0.13060127 0.0754735
-0.12278096 -0.12466154 -0.02380368 0.034535397 -0.057405308 0.1287097 0.008006227 -0.08742951
-0.034412615 -0.049825948 -0.08519149 -0.019535195 -0.061247937 0.43697086 -0.08196233 -0.061619073
-0.15773131 0.031195242 -0.16431078 -0.14505415 0.100086994 -0.035050783 -0.14036596 -0.023068907
-0.15442687 -0.13642405 -0.08404263 0.1340125 -0.05215065 -0.08126375 -0.29723197 -0.14055687
-0.09103818 0.13265042 -0.11993742 -0.10706559 0.02878499 0.3845745 -0.12223098 -0.035532583
-0.01515378 -0.13314448 -0.059555892 -0.061947282 -0.14104958 0.07042538 0.28015658 0.06902959
0.38523078 0.0006121328 0.06907183 -0.123760894 0.097151846 0.16372307 -0.13694265 -0.13439287
-0.1717939 0.10393713 -0.07252561 -0.021431684 -0.12941405 0.25613746 -0.07909617 0.27807352
0.39596862 0.011902251 -0.026110778 -0.0657435 -0.19725358 -0.008465679 -0.122004345 0.4239614
0.20471533 0.15960889 0.021580242 0.06187239 -0.08727263 0.10310911 0.010955327 -0.24231409
-0.12700418 -0.09859931 0.22341192 0.08496223 -0.121154904 0.15206458 -0.1251127 0.0559553
0.5115255 -0.1322871 -0.2538966 0.20534089 0.43009204 -0.14056253 -0.08283285 -0.11173129
-0.095565274 0.2354009 -0.061262105 0.3980026 0.2575487 0.06957161 -0.016708687 -0.09230224
0.38756427 -0.046335746 -0.17347714 0.33775696 -0.117474206 0.14906779 0.13848948 -0.07022369

layer3.weight f4 [16, 128]
00000000: b5e8 f8bc b077 873e da8e ed3c 8ebe 57bc
00000010: 566a b5bd 73d7 9b3c 65bf 32bf bf3b 103f
00000020: 007a 64bb 320c ae3e 02e1 8d3d 1ffc 84bd
00000030: 0e6f f9bc aa91 fc3e fe39 cc3e 870d d23d
00000040: 008f 2c3c 47c8 523d 41d7 bdbd 506f 4dbe
00000050: f921 763c 7452 aabe 9e27 a13e 9835 c2bc
00000060: 0df6 ba3c 2ae7 a03d a13b c23c 8499 6cbb
00000070: cc04 a2bd a3a7 283e b7f3 8a3c a561 a73c
00000080: f325 433d e474 92be c8e3 49bd 7d02 86bd
00000090: f4e3 273e 5787 3d3c be47 60bc 12bf 2c3c
000000a0: 9197 2e3d 3a9d fdbd ec44 1f3e c15c f43e
000000b0: ecb3 c9bd 913e 3dbd 4af5 cb3d ab62 a5bd
000000c0: e75e 023f 41bf 7b3e a2af ae3e f9c1 a83d
000000d0: 6876 663e 033d c0bd 0d3f ce3d f811 3ebc
000000e0: 12c1 a33c 2aba b33d d29a d8bc 60a5 cd3c
000000f0: f762 5bbc 71a2 6fbe 7499 913e 53dd 693e
00000100: 3784 a93d 4572 2abe ab32 d83d be29 e3bb
00000110: c7d6 1a3d 5968 03be 6086 b4bd 392f a23e
00000120: 0f7c 0c3d 8bee 77be 346b abbd f5d2 9e3e
00000130: 8bfc bb3d 02dd 23bf fb22 7b3d 71de b7bd
00000140: 4cea 14be 5011 413e 60f4 adbc 74c1 21be
00000150: e4d0 593e a369 0ebe 7ac5 813e 1fe9 b63d
00000160: 2b93 34be 4c67 c43e 98ca 57be efde 6a3f
00000170: a324 113d c70f 13bf c8ed 223e 4efc 87be
00000180: 3c97 7abd 535a 073d a7b6 17be cbf4 e03d
00000190: d9d3 16be 7ba2 963c c8b0 6e3d 8166 6dbe
000001a0: 3683 acbc d3ac 313c faf1 2cbe da35 87bd
000001b0: 0020 e1be ff49 06be a5d9 54bd f38f 953d
000001c0: 6078 233c d565 a4be a0f0 71bd 3862 823e
000001d0: 495a 133f c87b 27bd 4bba 92bc 4048 813d
000001e0: 35d8 0bbe 99f9 283d 79be f53a 0369 db3d
000001f0: 5cde 14be 3612 b5be e8f1 a2be fbb4 993d
00000200: b080 93bc 2fcd b3be 32d5 e0bd 9b19 a3bd
00000210: dd93 e93d d9ad c33c ea61 e33d d9bd 37be
00000220: 66c4 1fbe 3515 10bd 4ec1 95bd 4bac bebd
00000230: 865b 043d 9d9d 213e e685 b9be 0e94 ce3d
00000240: 4b3d 02bd 933b 463d 9df6 693d 3101 30be
00000250: be29 f6be 6b9a a33d d7e6 fcbc 6dd7 b73c
00000260: 58a0 0e3d 6cf3 983c 786f a0bd 0397 4abc
00000270: 280f 2cbe 1f00 27be d3c0 2fbd bccc 94bc
00000280: d0c5 d9bd a188 6b3c 0354 6dbd 3f53 ad3d
00000290: b7db 213e b288 71be 00d5 dabd a29b 963d
000002a0: 41b6 893b 0008 a43d 2922 093e d9f5 abbe
000002b0: d441 483d 17dd 863d 58f0 3ebe 3805 d5bc
000002c0: db97 2c3f 2092 ddbb a6f2 9cbe 613c 3fbc
000002d0: dced 02bf 7122 963d 618c e23d 6f78 6f3d
000002e0: c5c5 cabc b1d3 8ebd 11ff 0dbd 6306 483e
000002f0: 09cb c93c f3df 8abe 23a4 9cbe 5a9b 82bd
00000300: 206b e0be 7d3a 0c3d 494e f23d 75c0 86bb
00000310: 070f b0be 59b4 5f3d 6d65 ac3d 44d9 a0be
00000320: c2f0 f7bb 6137 1abe 4401 bdbc 58e6 253e
00000330: 5ac8 dfbc 348f cc3b f465 6e3d c635 a93e
00000340: 934d ccbd 0972 8ebe dd8c 16bd a967 a7bd
00000350: 936f 11be 0c90 b3be 967e 91be 8e86 6e3d
00000360: 03c4 95be 3266 91be 67a0 dcbc ee79 a83e
00000370: 5dae 603d b117 6c3e 98da 91be ba5d 123e
00000380: fbfc 513c 632b c2bd 54c8 02bd 8655 70be
00000390: 44c0 f43c 53d0 3dbe 36c5 56bd 797a f1be
000003a0: 5378 a83e 1b63 8abd bbc8 f8bd 0b81 c5be
000003b0: 3868 173e bf88 0fbd c588 d43d 9844 3bbd
000003c0: 47ad 71bd 06f1 8dbd abd1 d7bd 0418 2abf
000003d0: a969 e9be c1a6 64bc 7309 973c 7853 01bd
000003e0: 7632 0b3c 6ac4 93be 58e5 e3bc 5821 b8bd
000003f0: 05fb c8be 1049 8bbe 853d b53d f028 983d
-0.0303844 0.26458502 0.028998781 -0.01316799 -0.088581726 0.019023633 -0.69823295 0.56341165
-0.0034862757 0.3399368 0.069276825 -0.06493401 -0.030448463 0.49329883 0.39887995 0.102564864
0.010532141 0.05146053 -0.09269572 -0.20061994 0.015022748 -0.33266032 0.31475538 -0.023707196
0.022822404 0.07856591 0.023710074 -0.0036102245 -0.07911071 0.16470198 0.016961915 0.020432303
0.047643613 -0.28604805 -0.049289495 -0.06543443 0.16395551 0.011567912 -0.01368898 0.010543602
0.042625014 -0.12383504 0.15553635 0.47727016 -0.098487705 -0.046202246 0.099588946 -0.0807546
0.5092606 0.24584676 0.34118372 0.08240122 0.22506106 -0.09386637 0.1007062 -0.011600964
0.019989524 0.08775742 -0.026441012 0.025103271 -0.013390294 -0.2340181 0.28437388 0.22838335
0.08277171 -0.16645153 0.10556539 -0.0069324663 0.037802484 -0.12832774 -0.088146925 0.31676653
0.034298 -0.2421209 -0.08370057 0.31020322 0.09179028 -0.64009106 0.061312657 -0.08977974
-0.14542502 0.1885426 -0.021234691 -0.15796453 0.21271092 -0.13907485 0.25345975 0.08931183
-0.17634265 0.3836006 -0.21073377 0.9174642 0.03543533 -0.5744595 0.15911019 -0.2655968
-0.061179385 0.033045124 -0.1481577 0.109841906 -0.14729251 0.018388024 0.05827406 -0.23183633
-0.02105866 0.010844427 -0.16889182 -0.06602068 -0.43969727 -0.13114165 -0.051965374 0.07302847
0.00997743 -0.32108942 -0.05906737 0.2546556 0.5755964 -0.04088953 -0.017911097 0.06312609
-0.13656695 0.04125366 0.0018748782 0.10713389 -0.14537948 -0.35365456 -0.31825185 0.075052224
-0.018005699 -0.3511748 -0.10978164 -0.07963868 0.11405156 0.023886608 0.1110266 -0.17943515
-0.15602264 -0.035176475 -0.073122606 -0.09310206 0.032313846 0.15782781 -0.3623497 0.10086833
-0.031796735 0.04839666 0.057119954 -0.17187954 -0.48078722 0.07988437 -0.030871792 0.02244159
0.034820884 0.01867076 -0.07833761 -0.012365106 -0.16802657 -0.1630864 -0.0429085 -0.018164031
-0.10633433 0.014375837 -0.057941448 0.084631436 0.15806471 -0.23587301 -0.10685158 0.07353903
0.0042026346 0.080093384 0.13391937 -0.33586004 0.048890904 0.06585138 -0.18646371 -0.026003465
0.67419213 -0.006761804 -0.30653876 -0.01167211 -0.51144195 0.07330788 0.110619314 0.058464464
-0.024752507 -0.06973971 -0.03466708 0.19533686 0.024632948 -0.27123985 -0.30593976 -0.06377287
-0.4383173 0.034235466 0.11831338 -0.004112298 -0.34386465 0.054615352 0.08417783 -0.3141576
-0.0075665424 -0.15060188 -0.023071893 0.1620115 -0.027317215 0.006242657 0.0582027 0.33048838
-0.099757336 -0.27821377 -0.03675543 -0.081740685 -0.14202718 -0.35070837 -0.2841689 0.05823379
-0.29251108 -0.2839828 -0.026931955 0.32905525 0.054853786 0.23055913 -0.28487086 0.14293566
0.012816663 -0.094809316 -0.03192933 -0.23470125 0.029876836 -0.185365 -0.05243417 -0.47163752
0.329043 -0.06757184 -0.12147661 -0.38575014 0.1478585 -0.03504252 0.10377649 -0.045719713
-0.05900314 -0.06930737 -0.10538038 -0.66442895 -0.45588425 -0.013955773 0.018437123 -0.031573743
0.008495918 -0.2886079 -0.02781932 -0.08990735 -0.39254013 -0.2720418 0.088496245 0.07429683

layer3.bias f4 [16]
00000000: f504 9fbd 3e85 0d3f ee34 16be fb1a c23d
00000010: bb25 b93d f5fd b23e da21 70bd 051f 153e
00000020: 7b1f b5bc 2d3e 0abd 2663 4cbf 77d1 a4be
00000030: 517b 81be b770 523e 902c b6be 354c 463e
-0.07764617 0.55281436 -0.14668629 0.09477802 0.090404 0.3495938 -0.058626033 0.14562614
-0.022109738 -0.0337507 -0.7983879 -0.3219106 -0.25289395 0.2055081 -0.35580873 0.19365008

exp_avg f4 [128, 16]
00000000: c8c5 a03c 9761 843c 55aa bdbb 48ff 32bd
00000010: f606 5d3c 62e3 c73c b071 bdbc 9ae3 253d
00000020: 539e d8bc 6766 d2bc a14c 193c 393a 5abd
00000030: d316 a4bd 2b1c 253c d9d6 17bc d73b 473d
00000040: 725d a9bb 4da1 f73c 5ea8 8f3d f8aa ff3c
00000050: 5c19 8b3c 3c31 f1bb be61 923b 8dfc fe3c
00000060: fab0 0fbd 82ea 8f3b a51c f33c 3da1 5b3c
00000070: 9f3d 173d ad5d 6cbd 4d57 1a3c 9c8f bf3c
00000080: 9b1f e6bc bf44 54bd 0a72 373c 834a 743d
00000090: 2d72 a23c 3940 23bc 6e21 6cbd b610 60bb
000000a0: 46a1 9fbd 7323 d1bb 70cb f43b 148e 913b
000000b0: 60ea d63d 0806 82b9 cc90 8e3d 04af ddbc
000000c0: 3d9f 153b 27d5 fc3c a360 ec3d aff1 64bd
000000d0: 5216 c93d 4986 9c3c 1f37 0e3e 0653 e1bd
000000e0: 687f 0a3e a3c0 163d 2e31 bc3d 2f39 173e
000000f0: 2c8e 9ebd 5408 e83d 23bb e6bd b843 a53d
00000100: 6b34 02bd 778a 46bb 7e62 8ebd e9e3 bebb
00000110: 73ee b9bd b972 a63d b2b2 75bc 29d5 413d
00000120: b8f5 003d d5f7 953d 8237 e0bc 7ef7 2bbd
00000130: 5106 07bd de8c 903c aded c1bd f444 453d
00000140: 7919 d5bd 5d60 813d 90de 56bd 1f2b 85bd
00000150: 98a7 863d b8b1 2ebe 60ba cebd 2100 733d
00000160: cc83 423d b892 07be 0e3c eabd ab54 6b3b
00000170: 601a 1d39 6a20 cebc 02e2 a93d f0be c7bc
00000180: 06e7 0dbd 3b75 7b3c 0c69 aabb 36d9 38bd
00000190: 58a3 123d 6e79 04bd 25c1 333d b09a a4bc
000001a0: 4757 833d 388e 263c 3fad 08b9 e091 093d
000001b0: 3a8a f6bc 1489 8d3c f0a4 1f3b e12b 3abc
000001c0: 39b5 f7bc 0784 443d 34b8 3d3c c743 dfba
000001d0: 992f 9cbb dc7c bcbc 3e6d c93c b9e7 0f3d
000001e0: 8fae 9c3a ebae 1fbd d2f7 f3bb 1558 eabc
000001f0: 6c15 10bd c3a5 86bc 7aa5 91bb 859d 2a3d
00000200: e10c 943c f088 37bd fa09 60bd ea78 9dbc
00000210: 98fb 983d 3b5f ee3d 3c7c e13a fbbc e33c
00000220: 7ff9 91bd 7d49 f53b e73d dcbc c20c b2bd
00000230: e38f e83b 1437 46bd a7d6 f2bb d2bc b13c
00000240: b5de 633d bd43 fcbc 2831 f73c d9b6 953c
00000250: d9ab 1bbb f769 193d fda4 86bc 0f98 163c
00000260: 99bb 15bd e3a4 acbc c21f 313d 6d0c 63bc
00000270: e1f2 95bc ca8e 8d3c 90dd 20bd 9100 493d
00000280: 6a90 3f3d 063e 0d3d 6983 4cbd c517 88bc
00000290: d833 993c 294e 353e abfc 663e 8bf4 cfbc
000002a0: 75fb a3bd 5bf0 fe3d 28cc cf3d 5514 32bd
000002b0: 495e d1bd 6dc8 a73b b432 803c 5d1a 53bb
000002c0: b98b 273c 98fa 173d 135a 07bc 2fe5 6b3c
000002d0: a948 88bc c309 8bbc a34b 613c 331d 3ebd
000002e0: 852b 4b3d 0e28 173d ba34 fcbb f953 523c
000002f0: 501a cbbb f0ed 163d c5a1 77bd 8951 51bb
00000300: f9a9 ccbb fac4 29bd fb29 77bd 2c27 bebd
00000310: 5613 85bd e1e3 293d 235f 9f3d 0537 b83d
00000320: 22da f83c 6842 143c 848f 103c 2481 9dbd
00000330: 012b edbd d336 f4bc 0fa1 653c 0f56 363c
00000340: 9c7b 71bd e1c9 333d 8537 87bd dd7e 4ebc
00000350: 4be0 c13b 1d37 02bd 74c7 f639 653c b6ba
00000360: cf4b 373b 2e2c 223c fb36 50bd 7e08 41bd
00000370: f39c d0ba 8619 7838 e2c5 363d 4bc4 3cbd
00000380: 06a4 963c 88b2 a33c 761f 87bd 0c9f 82bb
00000390: 2537 7e3c 4bb3 4f3d 91f4 e2bc 2b09 d7bb
000003a0: 13ef 49bd eec7 3bbd 9069 b93c b136 d9bd
000003b0: 63ca 04be 492d 84bd 724f 3fbc 9244 283d
000003c0: 0d0b 67bc 6ae6 193d 0d60 113e a29f 573d
000003d0: 0af3 04be 385a d8bd eeab 04bd 1459 18bd
000003e0: f567 913d 5dce 503d f34f 1abb 7592 373e
000003f0: 0624 d63d 6814 523d b79e 8fbb a8bc 28bd
0.01962556 0.016159816 -0.0057881274 -0.043700486 0.013490429 0.024400417 -0.0231255 0.04050026
-0.026442682 -0.025683595 0.009356649 -0.05327818 -0.08012166 0.010077517 -0.009267532 0.048641052
-0.0051686103 0.030228281 0.07014535 0.031209454 0.016979866 -0.0073606055 0.004467218 0.031126285
-0.035080887 0.004391969 0.029676745 0.013405141 0.036924 -0.057706524 0.009420228 0.023383908
-0.028091243 -0.051823374 0.011196623 0.059641372 0.019829834 -0.009964042 -0.05764907 -0.0034189648
-0.07794432 -0.0063823997 0.0074705407 0.004441986 0.10493922 -0.00024800026 0.069612116 -0.027060993
0.002283051 0.030863358 0.115418695 -0.05589455 0.098187104 0.019107 0.13888215 -0.110021636
0.13525164 0.036804806 0.09189068 0.14767908 -0.07741961 0.113297135 -0.11266162 0.08069557
-0.03178827 -0.0030294934 -0.0695238 -0.005825509 -0.09078684 0.0812735 -0.014996218 0.047322426
0.031484336 0.07322661 -0.027370218 -0.041984074 -0.03296501 0.017645296 -0.09469161 0.048161462
-0.10405249 0.06317208 -0.052458346 -0.06502365 0.06574935 -0.17059982 -0.10094142 0.059326295
0.047488973 -0.13239563 -0.11437236 0.003590862 0.00014982512 -0.02516194 0.08295061 -0.024383038
-0.03464415 0.015347774 -0.005200511 -0.045129023 0.035800308 -0.032342367 0.04388537 -0.020093292
0.06413131 0.0101657435 -0.0001303451 0.033586383 -0.030095208 0.017277278 0.0024359785 -0.011363001
-0.03023778 0.047977474 0.011579562 -0.0017033749 -0.0047664163 -0.023008756 0.024588224 0.035133097
0.0011953878 -0.038985174 -0.007445314 -0.028606454 -0.03517668 -0.016436463 -0.004444775 0.04165413
0.018072547 -0.04480833 -0.054697014 -0.019222695 0.07469863 0.116392575 0.0017203162 0.027800074
-0.07127666 0.007485567 -0.026884986 -0.086938396 0.0070972308 -0.04839237 -0.0074108425 0.021696482
0.05563231 -0.030794019 0.030174807 0.018275665 -0.0023753552 0.03745457 -0.016436094 0.009191527
-0.03655586 -0.021074718 0.043243177 -0.013857943 -0.01830429 0.017280001 -0.0392738 0.049072806
0.046768583 0.03448298 -0.04993001 -0.016612897 0.018701479 0.17705597 0.22557323 -0.025385162
-0.08006946 0.12448188 0.101463616 -0.04347642 -0.102230616 0.005120328 0.015649177 -0.0032211759
0.010226184 0.03710422 -0.008261221 0.014397903 -0.01663621 -0.016972428 0.013750943 -0.046414565
0.04960205 0.036903434 -0.007696715 0.012837403 -0.006198205 0.03684801 -0.06045701 -0.0031939468
-0.0062458483 -0.041447617 -0.06034277 -0.09284815 -0.06497829 0.041477088 0.07781818 0.08994869
0.030377451 0.009049036 0.008823279 -0.07690647 -0.11580468 -0.029811298 0.01401545 0.011128916
-0.058955774 0.0438937 -0.066023864 -0.012603489 0.0059166304 -0.03179084 0.0004706938 -0.0013903497
0.002796877 0.009898229 -0.050833683 -0.04712724 -0.0015915915 5.9151578e-05 0.04462231 -0.046085637
0.01838876 0.019982591 -0.065977976 -0.003986245 0.015516077 0.050708096 -0.027704509 -0.006562372
-0.049300265 -0.045844965 0.022633344 -0.10606135 -0.1296783 -0.0645395 -0.011676656 0.04108102
-0.014101756 0.037573256 0.14196797 0.052642472 -0.12983337 -0.10564083 -0.032390527 -0.037194327
0.07099906 0.050978053 -0.0023546189 0.17926963 0.1045609 0.051288992 -0.004382934 -0.04119554

exp_avg_sq f4 [128, 16]
00000000: 2820 2f3d 710d 823d 1218 d73d fde3 633d
00000010: af3c 173d 400a 753d 5157 9e3d 3ac9 113d
00000020: 3292 3a3d 1e0e c43d de01 5c3d 9e6d af3d
00000030: 11ee 163d eb5c 5b3d 85cb 743d 85e0 5c3d
00000040: 7903 f73d ecd2 363e 320b 323d 11c4 ea3d
00000050: 4201 9e3d 9bbc d03d b9de e73d 131a 033e
00000060: 2c86 a53d 627c 3e3d 1327 1f3e a52d bc3d
00000070: ef87 923d fd30 dd3d bf0f a93d bd2e 2a3d
00000080: c42a a43d 03e4 cc3d ebef 5a3d 3ebf 943d
00000090: 6cba a03d 5724 f43c 63a3 b73d e4b0 e13d
000000a0: e31e b03d 6825 ac3d 321a c33d 8203 ea3c
000000b0: 29de d83d 94b4 c33d 7963 c53d 1e1f cb3d
000000c0: 5404 133e 11d8 123e 01bb ed3d 387d 003e
000000d0: 18c5 dd3d a498 fd3d 8d46 133e 7dc1 ac3d
000000e0: ae6c fc3d 3fca 203e dbe0 083e 46bb e03d
000000f0: 6371 123e 915c 193e 717f 0d3e 57ba 033e
00000100: 5af7 313e c3d4 333e 4d60 013e a47a 0a3e
00000110: 7d4d 1c3e e5d7 c73e e09b ac3e 05ae 923d
00000120: edd9 3f3e 5547 533e 9507 f83d 2814 0c3e
00000130: ef0c 793e 9c11 073e 8550 3b3e 34a6 333e
00000140: 2639 bb3d 64f1 c53d ac81 293e ab48 c43d
00000150: 860e d63d b1e5 8c3e 5ef8 543e 7940 9c3d
00000160: a147 683d 7f6b 0c3e 6e34 bd3d 2d8a 6c3d
00000170: 13fc 643d 4fd8 af3d 541d 933d 762d f93d
00000180: 0f9b a73d 9b70 9f3d 1ee2 5f3d c885 ce3d
00000190: 7d47 de3d 3e00 4b3d fa00 d53d cf5f df3d
000001a0: 1eec df3d 43a2 083e d3cc 013e b570 a03d
000001b0: b0b0 aa3d d211 bd3d 55e4 d43d 5ecd e03d
000001c0: 78dd 5b3c 8cfa 1f3d 12f9 a63c dcc6 bd3c
000001d0: 5308 543c 9a5f 3b3d c3e3 0e3d 379a ca3c
000001e0: 2780 f03c 1a43 0e3d 9e66 ab3c 1596 133d
000001f0: 4ccd 2d3d 1454 da3c 7140 163d 15ee bc3c
00000200: 693b 9b3d 6b5f a23d c4bf f43d edd0 703d
00000210: e159 af3d 65d0 053e 6cf8 1f3e b889 ac3d
00000220: 76f0 613d ce5d de3d a321 c13d b824 993d
00000230: b4fd 4b3d 669d 563d 0dfa 493d 0ad2 8b3d
00000240: 136d 833d 12a5 733d 8d34 a03d 16bb a23d
00000250: 7924 843d 2721 643e 323e 1d3e c798 703d
00000260: 5b5a 873d 0bca c33d 71e3 943d 1465 293d
00000270: 5209 a03d 53a8 8c3d 16af 993d bb8a 9b3d
00000280: ad3f d23d 75c5 553e 45d4 a13d a914 8c3d
00000290: 7884 8c3d 72f4 a23d 1e71 883e ab96 aa3d
000002a0: 3b13 2d3e 1847 7c3e 0566 213e 66bd af3d
000002b0: 7a9f 3d3e 6c92 a13d af5a 5a3e b670 0d3e
000002c0: 3e8c 1d3d 29b6 083d 956b 783c 8290 043d
000002d0: bce5 bb3c c688 f83c 2708 723c 4552 823d
000002e0: 170b 233d 44ec 803c bb80 243d 4673 3c3d
000002f0: b7e2 0c3d e112 713d 3d02 153d 7c0a e23c
00000300: 8b1e 743d 41b7 3a3e d1f3 3f3e f9bd 123e
00000310: 940a ef3d d77f 6e3e 12fc 373e 30dc ab3d
00000320: 6f7f 213e a786 ef3d ae11 bd3d 5f26 e73d
00000330: e3f1 523e 1452 d13d 1125 473e fdbc 0b3e
00000340: 3ab7 153d 4584 323d 517f fb3c 00ff a03c
00000350: 2b15 183d 972b 3a3c 8ab3 493d c9b7 763c
00000360: e171 823d 24f9 5d3d 8140 0c3d 0deb c43c
00000370: 847f 853d 333d e33c 73b0 9f3d 9920 763d
00000380: aa4e 203d 06bc 303d 1328 913d 54fe 3f3d
00000390: 733a 9f3d b0c1 f63d 117b ad3d 1d41 4d3d
000003a0: 07bb 063e 2193 743d f2ab 633d 6c5d 083e
000003b0: 61d4 953d b4b1 aa3d 658f a43d 7f3c da3d
000003c0: a70b b33d 21a5 b23d 14ca b43d eb19 923d
000003d0: 3859 103e 2159 a43d 24b3 ae3d e858 a23d
000003e0: 8821 773d e017 7f3d 27cb c23d 94fa bb3d
000003f0: 0b39 8a3d d45a 803d bec9 ba3d dd09 ac3d
0.042755276 0.0635022 0.10502638 0.05563735 0.036923107 0.05982423 0.07731498 0.035592295
0.04554958 0.09573005 0.05371272 0.0856583 0.03684813 0.05355541 0.059764404 0.053925056
0.12061209 0.17853898 0.043467708 0.11463178 0.07715084 0.10192224 0.11321778 0.12802915
0.08082232 0.04650534 0.1554225 0.091883935 0.071548335 0.108003594 0.082549565 0.04154848
0.080159694 0.10004427 0.05345146 0.07263039 0.07848057 0.029802484 0.089667104 0.11020067
0.08599641 0.08405572 0.09526481 0.028566126 0.10589249 0.09555927 0.096381135 0.099180445
0.1435712 0.14340235 0.11607934 0.12547767 0.10828608 0.123826295 0.14382382 0.084353425
0.123254165 0.15702151 0.13367026 0.109732196 0.14301066 0.14976718 0.13818146 0.12864052
0.17379513 0.17561631 0.12634392 0.13523346 0.15263934 0.39031902 0.33712673 0.07162098
0.18735476 0.2063268 0.12110821 0.13679564 0.2432134 0.13190311 0.18292435 0.1754387
0.091417596 0.09665182 0.16553372 0.09584173 0.10451989 0.2751899 0.2079787 0.07629485
0.056708936 0.13712882 0.09238516 0.057748962 0.05590446 0.085861795 0.07183328 0.12166874
0.08183872 0.0778515 0.054659 0.100841105 0.10853479 0.049560778 0.10400577 0.10906946
0.10933708 0.13343148 0.1267579 0.07833997 0.08334482 0.092319146 0.103951134 0.10976671
0.0134195015 0.0390573 0.020382438 0.023166113 0.012941438 0.04574547 0.03488518 0.024731738
0.029357983 0.03473196 0.020922955 0.0360318 0.042432114 0.02665142 0.03668255 0.023062745
0.07579691 0.07928356 0.11950639 0.058792997 0.08562065 0.13067777 0.15622109 0.08424705
0.055160962 0.108577356 0.09430244 0.07477707 0.049802497 0.0523962 0.049310733 0.06827171
0.06417289 0.059483595 0.07822523 0.0794584 0.06452269 0.22278272 0.15355757 0.05873945
0.06609031 0.09560021 0.072699435 0.04135616 0.07814278 0.06868043 0.07504098 0.0759482
0.102660514 0.20876105 0.07901815 0.06839878 0.06861204 0.079567805 0.26648802 0.08329519
0.16901867 0.24636495 0.15761574 0.08581047 0.18517867 0.07889256 0.21323656 0.13812527
0.038463823 0.033376846 0.015162368 0.032364376 0.022936694 0.030338656 0.0147724515 0.06363348
0.039805498 0.01573766 0.04016183 0.04600837 0.0343959 0.058855895 0.036379088 0.02759289
0.05959944 0.18233968 0.18745352 0.14330281 0.116719395 0.23290955 0.17967251 0.08391607
0.15771268 0.11695605 0.09231888 0.112866156 0.20600085 0.10220733 0.19447733 0.13646312
0.03655169 0.043583173 0.030700358 0.019652843 0.037129562 0.011362932 0.049243487 0.015058466
0.06369377 0.054192677 0.034241203 0.024037862 0.06518462 0.027739143 0.07797327 0.06008968
0.03913752 0.043148063 0.07087722 0.046873406 0.0777482 0.12048662 0.08470739 0.050110925
0.13157283 0.059710626 0.0555839 0.13316888 0.07315899 0.083346754 0.08035163 0.1065607
0.08742457 0.08722902 0.08827606 0.0713385 0.14096534 0.080248125 0.08530262 0.07927114
0.060334712 0.06227863 0.095114045 0.09178653 0.06749161 0.06267324 0.091205105 0.08400319

exp_avg f4 [128]
00000000: 0ba6 0abb abbf 66bd 5592 873d 8e3e 3dbe
00000010: 195c 0e3d 9f21 11be 97a9 fbbc 5348 cdbc
00000020: b6ce 493c 6ecc 5e3d 8c61 abbd 562c fa3c
00000030: fbfb 38bd 78f8 0b3d e4a0 e33c ffdf 94bd
00000040: 69f8 07bc 3170 a93c 727b 403d 77e4 75bc
00000050: 18fb 293c b825 24bd 5699 443c 7572 41bc
00000060: e61a f3bc 97e4 2c3d d250 383d 78b1 0abc
00000070: a1e1 47bd ff7e d83c 5397 37bd 99c6 2d3c
00000080: 0712 edbc 0cd7 68bd 58d9 9e3d a463 42bd
00000090: eb0d 53bd 0780 8abd 685b 5b3d 3918 c0bd
000000a0: e70b b2bd 00fb 08bd 511b 06be 4214 3d3d
000000b0: 784b 8abd 118d 55bd 5646 6e3c b77e 7ebc
000000c0: d041 b7bb 0175 d13c fb67 e13c 93c7 6cbd
000000d0: 9a67 7abc b762 373e 514c 43bd e47a 353e
000000e0: 7de3 6bbd 42f2 36bd d113 953d 1023 313d
000000f0: 4164 0bbe 9329 133b dc22 dc3d d169 b8bc
00000100: 9ddd 953d 1bbe ea3c 208c a5bd 6a98 973d
00000110: b199 9b3d 2c84 44bd f8b2 a13d 173c 84bd
00000120: d545 a83c e3e5 293d 0db7 1d3d 6d5e 1dbc
00000130: 1715 93bd f179 ffbc 72ab b73c 22ea 35bd
00000140: 63d2 1c3d 1963 e13c 31ba efbc 4337 14bd
00000150: 7181 65bc c949 a3bd 37e8 5f3d 3bf8 d23d
00000160: 9954 edbd b4e3 2bbd 0400 0000 da95 41be
00000170: a7e4 5f3c db70 9bbd 4cae a03c cb73 a43c
00000180: 39c5 fcbb 2e28 b93d 7fed 86bc a6e3 193c
00000190: 05c3 06bc 1bd6 713d db08 18bd a817 953c
000001a0: fe83 c93c 0400 0000 007b 463d 61c2 a83c
000001b0: 383f 72bc 330a e63b a125 49be 55fa 803d
000001c0: c4ff abbc be14 9fbd 2c89 0ebc 7409 923d
000001d0: 9426 cf3c 2662 073d d65c 243d 0d11 ccbc
000001e0: dc8f 493d d4b6 393d 2e1c c1bc e8dc 90bc
000001f0: c8d0 393d 9b6d d83d 1fb0 db3c e658 0a3d
-0.0021156098 -0.056335133 0.066197075 -0.18480894 0.0347558 -0.14172982 -0.030720515 -0.025058901
0.01231735 0.054394178 -0.08368215 0.03053872 -0.045162182 0.034172505 0.02778668 -0.07269286
-0.008298972 0.02068338 0.046992727 -0.015008084 0.010374807 -0.040075034 0.011999449 -0.011807074
-0.029675912 0.042210188 0.04499895 -0.008465163 -0.04879916 0.026427744 -0.04482205 0.010606431
-0.02893926 -0.05684571 0.07756299 -0.047458306 -0.051526945 -0.067627005 0.05355397 -0.0937962
-0.086936764 -0.033442497 -0.13096358 0.046161897 -0.06752676 -0.052136485 0.014543137 -0.015533141
-0.0055925623 0.025568487 0.027515402 -0.057807516 -0.01528349 0.1790875 -0.047680203 0.1772266
-0.057589997 -0.04466463 0.0727917 0.04324633 -0.13612463 0.00224552 0.107488364 -0.022511395
0.0731766 0.028655102 -0.08083367 0.074021176 0.07597674 -0.04797761 0.07895464 -0.06456774
0.020541111 0.041479003 0.03850465 -0.009605032 -0.07181757 -0.031186076 0.022420619 -0.04441274
0.038286578 0.027513074 -0.029263588 -0.036185514 -0.014007912 -0.07973058 0.054664817 0.103012525
-0.11588401 -0.0419652 6e-45 -0.1890482 0.013665355 -0.07589885 0.019614361 0.020074746
-0.0077139405 0.09040867 -0.016470669 0.0093926545 -0.008225207 0.059042078 -0.03711782 0.018199757
0.024599072 6e-45 0.048457146 0.0206005 -0.01478558 0.007020259 -0.1964326 0.06297747
-0.020995982 -0.07767628 -0.0086996965 0.07130709 0.02528695 0.033052586 0.040127598 -0.024910474
0.04920946 0.045340374 -0.023573007 -0.017683461 0.045365125 0.105677806 0.02681738 0.033776186

exp_avg_sq f4 [128]
00000000: 22a8 5f3d d91c 253e aafb c93d 5234 3d3e
00000010: 1bce 833e 65c0 613e e12c 003e 397a 2c3d
00000020: 079d d93d dde0 223e 7a34 263e c8d2 203d
00000030: c9ff 5d3e 7ce9 0a3d 409f c73d d8c8 c63d
00000040: 9a04 ad3d 52e0 813d 2da2 813e 7c7e dd3c
00000050: 3198 663d 8c6b ae3d 4b78 f53d 3b54 fc3d
00000060: e387 d53d 3cb7 ab3e 1f12 dc3c aeee 3d3d
00000070: f379 db3d d5c0 823d 65e0 a13d 5f1d 8e3e
00000080: 51e8 b43d 721b c13d 9534 933e 3097 eb3d
00000090: 3e2e 873d 5c19 c43d 878d 8e3d 3e9f 8c3d
000000a0: 9028 3b3e 78fb d13d b458 453e 30d0 a33d
000000b0: ed6d 683e e018 dc3c 6651 973d 1448 2f3e
000000c0: 6363 7f3d a584 9e3d d568 e53d 22b0 e03d
000000d0: 2995 203e 8c1c 193f 4a9f 553d d683 8e3d
000000e0: 1096 053e abb3 013e 4acf 963d 8403 a63d
000000f0: e21e 823e 7adf 0d3e 61d4 093e 861b fc3d
00000100: a76f 803d e74f f63d 20e9 173e 2298 d83d
00000110: d81e 8d3d 779b 6c3e 6e1a 983d d37a 473d
00000120: fed2 063d b301 f43d 298d 223e ee2f 2d3d
00000130: 6693 3c3e 34e8 be3c d081 233e 8806 d23e
00000140: acb2 cb3d 366c a03d abcf 043e 2807 f53d
00000150: ff51 433d 5876 de3d c8bf c83d 2338 253e
00000160: efee 093e 221e f53d 5b56 6f21 b03d 1a3e
00000170: ef9b c83d 76fd 4c3d 8d9e f53d 390a 8e3d
00000180: 7077 b63d a63e 183e 1a97 8b3d 979e e93d
00000190: e412 273d 2c1a 643e 1463 af3d 5959 183e
000001a0: 7b81 113e af68 0926 39f0 4b3d db06 233e
000001b0: ab2c 9d3c fc46 7e3c 438e 1e3e e4de d53d
000001c0: 6b98 183e 2539 c73d de02 9c3b 1e17 0f3e
000001d0: 774f 823d 0717 083e e99c da3d 0995 ba3d
000001e0: 5936 923d 8f8e 7d3d 81d1 783d 0164 153d
000001f0: 5522 243e a240 163e bb1b 003d fb0f e13d
0.054603703 0.16124286 0.09862454 0.1847699 0.25743183 0.22046049 0.1251712 0.042108748
0.10625654 0.15906091 0.16230956 0.039263517 0.21679606 0.033914074 0.097471714 0.09706277
0.08448143 0.06341614 0.25319043 0.027037852 0.056297485 0.08516607 0.11985835 0.12320753
0.10426309 0.33538234 0.02686411 0.0463702 0.10716619 0.06384436 0.07904128 0.27756783
0.08833373 0.09429063 0.28751054 0.11503446 0.06600617 0.095751494 0.06960588 0.068663105
0.18277192 0.10253042 0.19272119 0.07998693 0.22698183 0.02686733 0.073885724 0.1711734
0.062350642 0.07740144 0.11201636 0.10971095 0.156819 0.59809184 0.052153863 0.069587395
0.13045526 0.12666194 0.07363756 0.08106139 0.25414187 0.13854781 0.13459922 0.12309937
0.06271296 0.12026959 0.14835024 0.10575892 0.068906486 0.2310618 0.07426916 0.04870112
0.03291606 0.119143866 0.15874161 0.042282037 0.18415603 0.023304082 0.15967488 0.41020608
0.09946188 0.078331396 0.12969844 0.119642556 0.04768562 0.10862416 0.09802204 0.16134696
0.13470052 0.11968638 8.109064e-19 0.15062594 0.09795367 0.050046407 0.11993132 0.069355436
0.089095 0.14867648 0.0681593 0.11407202 0.0407895 0.22275609 0.085638195 0.14877833
0.14209549 4.7673296e-16 0.04978964 0.15920584 0.019186338 0.015519854 0.15483956 0.10442904
0.14901893 0.09727696 0.004761084 0.13973662 0.06362813 0.13290034 0.106744595 0.091104575
0.07139272 0.061903533 0.060746673 0.036472324 0.16028722 0.14673093 0.031276446 0.10989376

exp_avg f4 [128, 128]
00000000: 0400 0000 0400 0000 0400 0080 0400 0000
00000010: 0400 0000 0400 0000 0400 0000 0400 0080
00000020: 0400 0000 0400 0000 0400 0000 0400 0000
00000030: 0400 0000 0400 0000 0400 0000 0400 0000
00000040: 0400 0000 0400 0000 0400 0080 0400 0000
00000050: 0400 0000 0400 0080 0400 0000 0400 0000
00000060: 0400 0000 0400 0000 0400 0080 0400 0000
00000070: 0400 0080 0400 0000 0400 0080 0400 0000
00000080: 0400 0080 0400 0080 0400 0000 0400 0080
00000090: 0400 0000 0400 0000 0400 0080 0400 0000
000000a0: 0400 0080 0400 0080 0400 0000 0400 0000
000000b0: 0400 0080 0400 0080 0400 0000 0400 0000
000000c0: 0400 0080 0400 0000 0400 0000 0400 0000
000000d0: 0400 0000 0400 0000 0400 0000 0400 0000
000000e0: 0400 0000 0400 0000 0400 0000 0400 0000
000000f0: 0400 0000 0400 0080 0400 0000 0400 0080
00000100: 0400 0000 0400 0000 0400 0000 0400 0000
00000110: 0400 0000 0400 0000 0400 0000 0400 0000
00000120: 0400 0000 0400 0000 0400 0000 0400 0080
00000130: 0400 0000 0400 0000 0400 0080 0400 0000
00000140: 0400 0000 0400 0000 0400 0000 0400 0000
00000150: 0400 0000 0400 0000 0400 0000 0400 0000
00000160: 0400 0000 0400 0080 0400 0080 0400 0000
00000170: 0400 0000 0400 0080 0400 0000 0400 0000
00000180: 0400 0080 0400 0080 0400 0000 0400 0000
00000190: 0400 0000 0400 0080 0400 0000 0400 0000
000001a0: 0400 0000 0400 0080 0400 0000 0400 0080
000001b0: 0400 0000 0400 0080 0400 0000 0400 0000
000001c0: 0400 0000 0400 0000 0400 0080 0400 0000
000001d0: 0400 0080 0400 0000 0400 0000 0400 0000
000001e0: 0400 0000 0400 0000 0400 0080 0400 0000
000001f0: 0400 0000 0400 0000 0400 0000 0400 0000
00000200: e651 aebb 734b aaba 0124 2cba bc89 343b
00000210: 6544 abbb 288b b9bb 0b22 3c3b 8657 19b9
00000220: 49c0 0f39 5230 983a 3bb7 b3b6 76fc 6eb5
00000230: 4a61 47bb cd0a 4d3a 9cd4 05bc 7f9a 26bb
00000240: 796f 27b9 5479 53b8 ceaa 04bb 301e 233c
00000250: 7f6c 763c 20d7 2fbb 8069 e33b 1070 b1ba
00000260: fd4a 89bb 2028 0fbb d332 023c 476e aab7
00000270: 69f0 40bb 538c ce3b 12d0 d43c aa71 6dbc
00000280: 7639 193c e368 40ba a268 01bb 3d3e 38b8
00000290: 8f53 04ba d6ed 17bc 878a e0b6 64af 8bb9
000002a0: 7266 b339 658a a039 a526 fe3a 0ab2 623a
000002b0: c321 56bb dd97 e5bb 6697 9339 0a3e 15bd
000002c0: 0a64 62bb 0f40 01bc 9be8 f9b8 c0dc d63b
000002d0: 7cd8 853c 50b3 91b6 c13c 2ebc 4b1c beb9
000002e0: 13cf 2a3c fc5b 25bb 893c a33c 7efa 15bb
000002f0: 8e78 77bb 0bdc 3839 f2ab 00ba 0552 e8ba
00000300: d915 0c3c 79c3 e8ba 5569 6139 2bd1 d7b8
00000310: 4c00 c7bb eb7c 2dbb 47b3 18ba c67a 5fba
00000320: 3e6c dab5 fa3a 96ba e142 f7ba d4a6 c0b9
00000330: ff92 14bb db9e 1720 5019 743a 6b2e 5bbc
00000340: c8f5 9e3b 5d59 1c3a 6238 1f3c 4ce7 0f3b
00000350: 0bbe c9bc f6c4 223c 1993 d237 5ba4 9eba
00000360: 76bd 67bb 90f0 833a 0400 0080 3867 8c3a
00000370: 66e4 3939 deee d43b b6b3 c939 fc13 193a
00000380: 6148 8c3b 006f 383d 8360 7eb6 a441 38bb
00000390: fc52 45bb 9a8c 18bb 9c75 843a b866 92bb
000003a0: 5b87 e0b8 0400 0080 b83a fc3b d2dd a23c
000003b0: 1f20 de39 7d9d f429 c9ab 9d39 13a2 c53b
000003c0: 5b36 2ebb 8fb9 e43b b385 3cbb dfad 50bc
000003d0: 6a26 6f3a b0fa 80bb bb78 e7bb 6836 e5ba
000003e0: a656 0d3b 34d3 d3bb 7c19 ac3b 5f4c 883b
000003f0: da25 d0ba bbb8 f1bb 30d3 c83c 14f9 87bb
6e-45 6e-45 -6e-45 6e-45 6e-45 6e-45 6e-45 -6e-45
6e-45 6e-45 6e-45 6e-45 6e-45 6e-45 6e-45 6e-45
6e-45 6e-45 -6e-45 6e-45 6e-45 -6e-45 6e-45 6e-45
6e-45 6e-45 -6e-45 6e-45 -6e-45 6e-45 -6e-45 6e-45
-6e-45 -6e-45 6e-45 -6e-45 6e-45 6e-45 -6e-45 6e-45
-6e-45 -6e-45 6e-45 6e-45 -6e-45 -6e-45 6e-45 6e-45
-6e-45 6e-45 6e-45 6e-45 6e-45 6e-45 6e-45 6e-45
6e-45 6e-45 6e-45 6e-45 6e-45 -6e-45 6e-45 -6e-45
6e-45 6e-45 6e-45 6e-45 6e-45 6e-45 6e-45 6e-45
6e-45 6e-45 6e-45 -6e-45 6e-45 6e-45 -6e-45 6e-45
6e-45 6e-45 6e-45 6e-45 6e-45 6e-45 6e-45 6e-45
6e-45 -6e-45 -6e-45 6e-45 6e-45 -6e-45 6e-45 6e-45
-6e-45 -6e-45 6e-45 6e-45 6e-45 -6e-45 6e-45 6e-45
6e-45 -6e-45 6e-45 -6e-45 6e-45 -6e-45 6e-45 6e-45
6e-45 6e-45 -6e-45 6e-45 -6e-45 6e-45 6e-45 6e-45
6e-45 6e-45 -6e-45 6e-45 6e-45 6e-45 6e-45 6e-45
-0.0053198216 -0.0012992456 -0.00065666443 0.0027547916 -0.005226659 -0.0056623407 0.0028706815 -0.00014623822
0.00013709175 0.001161108 -5.3559465e-06 -8.902929e-07 -0.003042298 0.0007821739 -0.008168366 -0.0025421677
-0.00015967888 -5.0419316e-05 -0.002024341 0.009955928 0.015040516 -0.0026831105 0.006940067 -0.0013537426
-0.0041898475 -0.0021843985 0.007946688 -2.0316931e-05 -0.002944017 0.006303349 0.025978122 -0.014492432
0.009352079 -0.0007339848 -0.0019746204 -4.3926982e-05 -0.00050478516 -0.009273013 -6.691847e-06 -0.00026642822
0.00034217868 0.0003062069 0.0019390179 0.00086477457 -0.0032673932 -0.007006629 0.00028150826 -0.03643612
-0.0034544491 -0.007888808 -0.000119165714 0.006557077 0.01633858 -4.3422115e-06 -0.010634602 -0.00036260704
0.010425347 -0.002523183 0.019926326 -0.00228849 -0.0037761065 0.0001762958 -0.00049084343 -0.0017724639
0.008550131 -0.0017758451 0.00021496911 -0.000102909595 -0.0060730334 -0.0026472162 -0.0005825054 -0.00085250696
-1.6273768e-06 -0.0011461668 -0.0018864536 -0.0003674539 -0.0022670624 1.2842758e-19 0.0009311633 -0.013377766
0.0048510768 0.0005964244 0.009718033 0.0021957932 -0.024626752 0.009934654 2.5102448e-05 -0.0012103425
-0.003536073 0.00100662 -6e-45 0.0010711914 0.0001772806 0.0064982018 0.00038471603 0.0005839465
0.004281089 0.045027733 -3.7905127e-06 -0.0028115297 -0.0030109277 -0.0023277164 0.0010105851 -0.0044678114
-0.00010706364 -6e-45 0.0076974295 0.019881163 0.00042367072 1.08630966e-13 0.00030073363 0.0060312836
-0.0026582691 0.006980128 -0.0028766214 -0.012736767 0.00091228506 -0.0039361343 -0.0070639527 -0.0017487528
0.002156654 -0.0064643864 0.0052520614 0.004159495 -0.0015880421 -0.007376758 0.024514765 -0.0041495655
