Specific task/Task_2/best_MLP.pth (torch, 257322 bytes, 18 tensors)

layer1.weight f4 [128, 16]
0	0xc0074987	-2.1138628
1	0xbf198788	-0.5997243
2	0x3fa678fc	1.3005672
3	0x3d07d213	0.033159327
4	0x3f1e9ac8	0.6195493
5	0x3f0ccdf5	0.55001765
6	0xbb1f9564	-0.0024350518
7	0xbfa0fee5	-1.2577788
8	0x3f0de019	0.5542007
9	0x4057edf5	3.3738987
10	0x3fbebfc8	1.4902277
11	0x3c733958	0.014845215
12	0x3f5f1a62	0.8714963
13	0xbe6852ad	-0.22687788
14	0xbdc9effb	-0.09860226
15	0xbd38c198	-0.0451065
16	0xbf5a31d2	-0.8523227
17	0x3f3d506b	0.73950833
18	0xbeba4eaf	-0.36388156
19	0xbe14efb1	-0.1454456
20	0x3f66a0e8	0.90089273
21	0x3f66e206	0.90188634
22	0x3b674449	0.0035288504
23	0xbe67006b	-0.22558753
24	0x40026b5b	2.0378025
25	0x4069cc8b	3.6531093
26	0xbd31f68c	-0.043448016
27	0x3c0658de	0.0081998985
28	0x3d52b473	0.05144162
29	0x3ed1c271	0.4096866
30	0xbf44725f	-0.76737016
31	0xbd29b8a5	-0.041435856
32	0xbf1a3c83	-0.60248584
33	0x4020f722	2.5150838
34	0xbf1755b1	-0.5911513
35	0xbf2e6ad1	-0.6813174
36	0x3eb75dbf	0.3581371
37	0xbf0cec11	-0.5504771
38	0x3e58dd59	0.21178187
39	0xbe2aa5a3	-0.16664748
40	0xbea6b477	-0.3255956
41	0xc017f736	-2.3744636
42	0xbfcf3e2a	-1.6190846
43	0x3e6ee505	0.23329552
44	0xbf5643c3	-0.83697146
45	0x3fc27bcf	1.5194033
46	0xbfa48a15	-1.2854639
47	0x3cec266d	0.028826917
48	0xbf96f43a	-1.1793282
49	0xbf95f5c8	-1.1715631
50	0xbd928a96	-0.071553394
51	0x3f9cabf7	1.223998
52	0x3fdc196d	1.7195259
53	0x3f918045	1.136727
54	0x3e8ed0db	0.2789372
55	0x3ed8f3f0	0.4237361
56	0x4000d384	2.01291
57	0x404360f1	3.0527918
58	0xbfac1ac2	-1.3445666
59	0xbdf0ae16	-0.11751954
60	0x3f6bd680	0.92124176
61	0x3ee9a074	0.4563023
62	0x3fbc8fac	1.4731345
63	0x3e8b4464	0.27200615
64	0xbfbcb3ae	-1.4742334
65	0x3ee20e7b	0.44151673
66	0xbfd417bc	-1.6569743
67	0x402839ac	2.62852
68	0x3e3b24ed	0.18275805
69	0xbfb46d58	-1.4095869
70	0x3e418367	0.18897782
71	0x3fd2c69a	1.6466858
72	0x4006b7ea	2.1049752
73	0x403350b4	2.8018007
74	0xbfc80679	-1.5626975
75	0xbe25d5df	-0.16194867
76	0x3f357071	0.70874697
77	0xbfa48e5e	-1.2855947
78	0xbf7adc4a	-0.97992384
79	0x3ee1303a	0.43982106
80	0x3ff59ecb	1.9189085
81	0x3ff61b6a	1.9227116
82	0x402c4167	2.6914918
83	0xbf2210ee	-0.6330708
84	0x3fee91b3	1.8638214
85	0x3fd432af	1.6577967
86	0xbeec22b7	-0.46120235
87	0x3dd1c31c	0.10242292
88	0xbfa2ddcd	-1.2723938
89	0x4080b690	4.0222855
90	0x3fd3e1eb	1.655332
91	0xbd98d983	-0.07463362
92	0xbf31716f	-0.6931371
93	0xbf73d1cf	-0.9524202
94	0xbf428477	-0.75983375
95	0xbe49d18b	-0.1970884
96	0x3ef036cf	0.46916816
97	0xbf15ab1a	-0.58464205
98	0xbf21f473	-0.63263625
99	0x3facd1af	1.350149
100	0xc097252c	-4.7232876
101	0x3fa67523	1.3004497
102	0xbc432b7e	-0.011912225
103	0x402c55ff	2.6927488
104	0xbf83f938	-1.031043
105	0x3fc348e3	1.5256618
106	0xbf2cbba7	-0.67473835
107	0xbe298851	-0.16555907
108	0x3f2bf377	0.6716837
109	0xbef47fc8	-0.4775374
110	0xbf8a6bf8	-1.08142
111	0xbdc13479	-0.094338365
112	0xbf670a45	-0.90250045
113	0x4024c664	2.5746088
114	0xbcf0ff5a	-0.029418636
115	0x3bf3608e	0.0074272817
116	0xc0ad3f15	-5.4139504
117	0xbeff0793	-0.49810466
118	0xbd06c58f	-0.03290325
119	0x402fc129	2.7461646
120	0xc0553453	-3.3313186
121	0xc082e887	-4.0908847
122	0x3ce93f4e	0.028472569
123	0x3bf91d82	0.0076023946
124	0xbf7acc58	-0.97968054
125	0x3ee41737	0.44548962
126	0xbf1c3b55	-0.61028033
127	0xbd01f31d	-0.03172599
128	0xc02964f1	-2.646786
129	0x3f5d8752	0.8653461
130	0x3e7e7653	0.24849825
131	0xbeda5300	-0.4264145
132	0x3ea210fd	0.31653586
133	0xbe9c05f1	-0.30473283
134	0xbd305491	-0.0430494
135	0x3e06db83	0.13169675
136	0xbee3f66c	-0.44523942
137	0x3f4eb3a9	0.8074289
138	0x3f98f0f1	1.194853
139	0xbd09464c	-0.033514306
140	0xbf2f7344	-0.68535256
141	0x3f521bac	0.82073474
142	0x3f8d3ac9	1.1033565
143	0x3d09a575	0.033605058
144	0xbfa5a7f0	-1.2941875
145	0x3f7dc5da	0.9913002
146	0xbdc35ec3	-0.09539559
147	0xbeac5f06	-0.33666247
148	0x3f8b27c2	1.0871508
149	0xbfe16f51	-1.7612096
150	0xbe383f7b	-0.17992966
151	0x3e6ea6a3	0.23305754
152	0x3f6f9abb	0.93595475
153	0x3fccc7dd	1.5998493
154	0xbf9af153	-1.2104896
155	0xbecf70a6	-0.4051563
156	0x3eb8cfe2	0.36096102
157	0x3f1f0e39	0.6213108
158	0xbf45cf60	-0.77269554
159	0x3e089b18	0.13340414
160	0x3ffd70b8	1.9800024
161	0xbf504e77	-0.8136973
162	0x4003121a	2.0479798
163	0x400a5d59	2.1619475
164	0xc03385b8	-2.8050365
165	0xbf15e007	-0.58544964
166	0xbdc6b4f7	-0.09702485
167	0xbf1305d6	-0.5743078
168	0xbfb41ff0	-1.4072247
169	0x40090868	2.141138
170	0x3e8be964	0.273265
171	0x3d5fcc11	0.054637972
172	0x3f523ea2	0.8212682
173	0xbf202df7	-0.62570137
174	0xbe2b0343	-0.16700463
175	0x3cbe1758	0.02320449
176	0x3e25d064	0.16192776
177	0xbd912168	-0.0708645
178	0x3cde9950	0.027172714
179	0x3e25e4da	0.16200581
180	0xbd660800	-0.056159973
181	0x3e47e040	0.19519138
182	0xbcf20af0	-0.029546231
183	0x3e0edcac	0.13951367
184	0xbe4e7c3e	-0.20164582
185	0xbcc32f30	-0.023826212
186	0x3d317a60	0.043329597
187	0x3cf70c50	0.030157238
188	0xbd99e394	-0.0751411
189	0xbcb851f0	-0.022500008
190	0xbddc93fc	-0.10770413
191	0x3d218b50	0.0394395
192	0x3f2bf950	0.67177296
193	0xbfb49df2	-1.4110701
194	0x4021c5e9	2.5277045
195	0x3f76dcac	0.9643047
196	0x40116f69	2.272425
197	0x3fd438e3	1.657986
198	0xbdb1be01	-0.086788185
199	0xbdf00c21	-0.117210634
200	0xbff72578	-1.930831
201	0x40224ad2	2.5358167
202	0x3f0c3fa6	0.5478462
203	0xbe111dc8	-0.14171517
204	0x3f82b9e4	1.0212979
205	0xc0049d31	-2.0720942
206	0x3f7346e4	0.95030046
207	0x3e21a619	0.15786017
208	0x3f029065	0.5100158
209	0xbf5f55c7	-0.8724026
210	0x3d35d126	0.044388913
211	0x3fbaa00b	1.4580091
212	0x3f20f782	0.62877667
213	0x3f3aac29	0.72918946
214	0x3bc6b1cd	0.006063676
215	0xbf7646d1	-0.9620181
216	0x40145754	2.31783
217	0x3fea5f1e	1.8310277
218	0x401c7d11	2.4451334
219	0xbdb5757e	-0.088603005
220	0xbfab2c29	-1.3372852
221	0xbfd13d7c	-1.6346889
222	0x3eff360b	0.4984592
223	0xbd2c9ee0	-0.042143703
224	0x4040dce1	3.0134814
225	0xbf89b04b	-1.0756925
226	0xbf80c465	-1.0059935
227	0x404ee062	3.2324452
228	0xc031034d	-2.7658265
229	0xbf9e4485	-1.236466
230	0xbeaacb83	-0.33358392
231	0x3f055865	0.52088004
232	0xbfe7aec1	-1.8100206
233	0x3ec04767	0.37554476
234	0xbfa76f76	-1.308089
235	0xbd2c7e3f	-0.042112585
236	0x3f03a55d	0.514242
237	0x3e290524	0.16505867
238	0x3f689937	0.9085879
239	0x3cbaa7f5	0.022785166
240	0x3ef4c02a	0.4780286
241	0x3e3c6ed5	0.18401654
242	0x3e55ee0a	0.20891586
243	0x3f0f6f0b	0.56028813
244	0xbf8661b1	-1.0498563
245	0x3da87769	0.08225901
246	0x3bfd2a33	0.007725978
247	0x3fb49ce5	1.411038
248	0x3fe59ff0	1.7939434
249	0xbfaaebcb	-1.3353208
250	0x3ec9c53f	0.394083
251	0xbd59c9f0	-0.0531711
252	0xbf91062e	-1.1330011
253	0xbeeb833f	-0.4599857
254	0x3f7e3a2a	0.993075
255	0x3e8adce5	0.27121654

layer1.bias f4 [128]
0	0x3ce92df4	0.028464295
1	0xbcf1567e	-0.029460188
2	0xbdf241c5	-0.11828951
3	0xbb9f4bf1	-0.004861348
4	0xbee5c032	-0.44873196
5	0xbe867260	-0.26259136
6	0xbdbc7bd9	-0.092033096
7	0xbcc84754	-0.024448074
8	0x3b621bc4	0.0034501413
9	0xbe273c7c	-0.16331667
10	0xbd4ff0b3	-0.050766658
11	0xbe781068	-0.24225008
12	0xbcbf35ed	-0.023341144
13	0xbdd75396	-0.105139896
14	0xbe2b3118	-0.16717947
15	0x3dc91fb1	0.09820498
16	0xbdb4a667	-0.08820801
17	0xbcdfcbf3	-0.02731893
18	0xbe6fd200	-0.23419952
19	0xbe3d3597	-0.18477474
20	0xbe2a575a	-0.16634884
21	0x3ca6d8c2	0.02036703
22	0xbc2c799b	-0.01052704
23	0xbd4f3f51	-0.050597493
24	0xbec94664	-0.39311516
25	0xbd8a9c7f	-0.067681305
26	0xbdc7172f	-0.09721219
27	0xbbbdd772	-0.0057935053
28	0xbd121edb	-0.035673957
29	0x3d0c8548	0.034306794
30	0xb844d2be	-4.692631e-05
31	0xbe94cc2e	-0.29062027
32	0xbd93048b	-0.07178601
33	0xbcef0277	-0.02917598
34	0x3ba0fdd8	0.004913073
35	0xbd172125	-0.036896843
36	0x3c7058f9	0.01466965
37	0xbc147405	-0.009060864
38	0x3cd7d847	0.026348246
39	0xbc8500bc	-0.016235702
40	0xbc197cf0	-0.009368166
41	0xbd7f2c13	-0.06229789
42	0xbeae944a	-0.3409751
43	0xbcaa1673	-0.020762658
44	0x3c81ffc0	0.015869021
45	0x3c812397	0.01576404
46	0xbc49ceb2	-0.012317346
47	0xbdc78a5e	-0.09743188
48	0xbc9f8d05	-0.019476423
49	0x3cc41977	0.023937924
50	0xbf034e78	-0.5129161
51	0xbe5e83ae	-0.2172992
52	0x3d8fa39b	0.07013627
53	0xbce4dd18	-0.027937457
54	0xbcd7b81a	-0.026332904
55	0xbdd95889	-0.1061259
56	0xbdef7324	-0.11691883
57	0xbea9bc61	-0.33151534
58	0x3d0be01f	0.034149285
59	0xbeb18eb6	-0.34679192
60	0xbda67fd7	-0.08129852
61	0xbddc6b46	-0.10762648
62	0xbd9bce50	-0.0760771
63	0xbd8ac26d	-0.06775365
64	0xbeae199d	-0.34003916
65	0xbdebf6fc	-0.11521718
66	0x3d811b27	0.06304007
67	0xbdc392c3	-0.09549477
68	0xbcb9e35a	-0.022691417
69	0xbe298714	-0.16555434
70	0xbd8adeb7	-0.06780761
71	0xbe0853a4	-0.13313156
72	0xbd366dda	-0.044538356
73	0x3cb7dca9	0.022444086
74	0xbccf001e	-0.02526861
75	0xbdc93959	-0.09825391
76	0xbc5fe061	-0.013664336
77	0x3d884c06	0.06655125
78	0x3cd31945	0.025768885
79	0x3d817e29	0.06322891
80	0xbeac5f2e	-0.33666366
81	0xbbd05255	-0.006357471
82	0xbd2e4282	-0.042543896
83	0xbd22f3a3	-0.03978313
84	0xbe41f677	-0.18941675
85	0xbdccc7d8	-0.09999055
86	0x3cb5bd2e	0.022184934
87	0xbd1d46ae	-0.038397484
88	0xbdb3b457	-0.087746315
89	0xbdc6d6ca	-0.097089365
90	0x3bcf59b7	0.0063278335
91	0xbe26d1c9	-0.16290964
92	0xbbc9fefc	-0.0061644297
93	0xbe3cd3db	-0.18440191
94	0xbd877bc3	-0.066154025
95	0x3cde9837	0.027172191
96	0xbec30d21	-0.38095954
97	0x3db553a6	0.08853845
98	0xbc84e14d	-0.016220713
99	0x3ad0a675	0.0015918749
100	0x3be79158	0.007066887
101	0xbef94aef	-0.48689982
102	0xbe78596b	-0.2425286
103	0xbea5f11d	-0.32410517
104	0x3c76d46e	0.015065296
105	0xbd1fb96f	-0.038995203
106	0xbea28538	-0.31742263
107	0x3db01347	0.08597427
108	0xbcf03ad5	-0.029324928
109	0xbe24d2a6	-0.16095981
110	0x3d3bcc38	0.045849055
111	0xbe08fa25	-0.13376673
112	0x3b509180	0.0031825006
113	0xbc997498	-0.018732354
114	0xbe7c5452	-0.2464154
115	0xbe7a27b6	-0.24429211
116	0xbdf8e231	-0.121525176
117	0xbdd461a2	-0.103701845
118	0xbd0a550f	-0.033772524
119	0xbe56763b	-0.20943539
120	0xbe3e6d00	-0.18596268
121	0xbe65afee	-0.22430393
122	0xbbca07b4	-0.006165469
123	0xbe2c22cc	-0.16810149
124	0xbdd8c18b	-0.105837904
125	0xbe5cafa5	-0.21551378
126	0xbe858f10	-0.2608571
127	0x3af028f6	0.0018322754

layer2.weight f4 [128, 128]
0	0x3c00ffcd	0.007873488
1	0xbaa71824	-0.0012748283
2	0xbdd36703	-0.10322382
3	0x3d733627	0.059377816
4	0x3d66c1ea	0.056337275
5	0xbd225d61	-0.039639834
6	0xbdad5f8f	-0.08465492
7	0xba0657e9	-0.0005124794
8	0xbdc197ba	-0.09452768
9	0x3d3c842e	0.046024494
10	0xbda8c591	-0.08240808
11	0xbd48d504	-0.049031273
12	0x3d0329c6	0.03202226
13	0x3ca8b954	0.020596184
14	0xbcc85822	-0.024456087
15	0xbd8213a2	-0.06351401
16	0x3cf34b04	0.029698856
17	0x3d3fc576	0.046819173
18	0x3d130014	0.035888746
19	0xbd07bca3	-0.033138882
20	0x3d6dc1a2	0.05804599
21	0x3b8c439d	0.004280521
22	0x3ca77d06	0.020445358
23	0x3b2f7120	0.0026770309
24	0x3c89da7d	0.016827816
25	0x3d2d4f8a	0.042312182
26	0xbd57281e	-0.052528493
27	0xbcce2c75	-0.025167683
28	0xbd948c75	-0.072533526
29	0xbd2f2fde	-0.04277026
30	0x3ca6dffb	0.020370474
31	0xbd1aa217	-0.037752237
32	0x3cdf5446	0.027261864
33	0xbdc944b8	-0.0982756
34	0x3d4e1242	0.05031038
35	0x3bbd2ff7	0.00577354
36	0x3cdac4ef	0.026705233
37	0x3d291dc1	0.04128814
38	0xbd05819d	-0.032594312
39	0x3c8bbcb0	0.017057747
40	0xbb1b0a58	-0.0023657288
41	0xbdd8a666	-0.10578613
42	0x3d53bd50	0.051694214
43	0xbd2ee62c	-0.042699978
44	0xbdc9b86c	-0.09849629
45	0xbddcd2f9	-0.10782427
46	0x3c3112fb	0.010807748
47	0x3d37cd17	0.044873323
48	0x3d93e0df	0.07220625
49	0x3bce8c7a	0.006303367
50	0xbdcbb93c	-0.0994744
51	0xbc9cbdf2	-0.019133542
52	0xbbe8ee27	-0.007108468
53	0xbd735c75	-0.059414346
54	0x3d81c6df	0.0633676
55	0x3cba215d	0.022720987
56	0xbceae3d2	-0.028673086
57	0x3d22541e	0.039631
58	0xbd9d5ff1	-0.07684315
59	0x3c2e4082	0.010635497
60	0xbdca3a10	-0.09874356
61	0xbd893b17	-0.067007236
62	0xbd5a6af4	-0.053324655
63	0x3c31e6c2	0.01085824
64	0xbc65c891	-0.01402487
65	0x3b6e74e7	0.0036385597
66	0xbb029ba8	-0.0019929204
67	0xbce1d798	-0.027568623
68	0xbdde63ea	-0.10858901
69	0xbdb60ff7	-0.08889764
70	0x3a0b8366	0.0005322009
71	0xbb709b31	-0.0036713595
72	0xbdbd3f49	-0.09240586
73	0xbdca0c8f	-0.098656766
74	0x3d4cfde5	0.05004682
75	0xbc23ea30	-0.010004565
76	0xbbea2c01	-0.007146359
77	0xbddbc3b0	-0.10730684
78	0xbcd9a3ed	-0.026567424
79	0xbdadb41a	-0.08481617
80	0xbdc303bb	-0.09522196
81	0xbdda060a	-0.10645683
82	0x3d529df8	0.051420182
83	0xbdafdc97	-0.08586996
84	0xbdbd99f4	-0.0925788
85	0x3c480348	0.012207814
86	0xbcc8b5f4	-0.024500825
87	0x3cd560e4	0.026047178
88	0x3d014121	0.031556252
89	0x3d230efb	0.03980921
90	0xbd30db33	-0.043177795
91	0xbd18b071	-0.037277643
92	0xbd8f5fcc	-0.07000694
93	0xbd63b914	-0.055596426
94	0xbda94bd3	-0.082664154
95	0xbca54ce3	-0.020178264
96	0x3c277a53	0.010222035
97	0xbcc0f9db	-0.02355664
98	0xbdd2482f	-0.10267674
99	0x3d2328d7	0.03983387
100	0xbcd8ab05	-0.026448736
101	0x3d5e6540	0.05429578
102	0xbd1864e2	-0.037205584
103	0x3ce4206f	0.027847497
104	0xbdbdc648	-0.09266335
105	0x3d8b81d5	0.06811873
106	0x3cfaf90b	0.030636331
107	0xbd8df6ab	-0.06931814
108	0xbd2998eb	-0.0414056
109	0xbb7b9129	-0.0038386083
110	0x3c8c2f8c	0.017112516
111	0xbc276479	-0.010216826
112	0xbdead134	-0.114656836
113	0xbc849038	-0.01618205
114	0xbdae8c7a	-0.085228875
115	0x3c8cc34a	0.017182965
116	0xbdbdc590	-0.09266198
117	0xbcb967ed	-0.022632563
118	0xbdadf147	-0.084932856
119	0xbdba986c	-0.091111034
120	0x3d50216a	0.050813116
121	0x3d2699f1	0.040674154
122	0xbd57fe17	-0.052732553
123	0xbccd7a9d	-0.02508288
124	0x3d1af165	0.037827868
125	0xbd4abcec	-0.049496576
126	0x3d17f328	0.037097126
127	0x3d124c17	0.035717096
128	0xbdcf2bab	-0.10115751
129	0x3e27c72e	0.16384575
130	0xc0140424	-2.3127527
131	0x3d449b98	0.04799995
132	0xbdaf83f8	-0.08570093
133	0x3d67a970	0.056558073
134	0xbd932bd5	-0.07186095
135	0xbfbb3ca0	-1.4627876
136	0x3d9f3841	0.077744015
137	0xbe72b61f	-0.23702286
138	0xbe4bcc69	-0.19902195
139	0xbda2f2eb	-0.07956489
140	0x3e494de9	0.19658627
141	0x3e722cbe	0.2364988
142	0x3ead265c	0.33818328
143	0x3d3e0087	0.04638722
144	0xbe832507	-0.25614187
145	0x3f03ec1b	0.51532143
146	0x3cba4b79	0.022741066
147	0x3e216493	0.15761022
148	0x3ed62f5d	0.4183301
149	0xbf7058ed	-0.9388569
150	0x3cb86cbb	0.022512784
151	0xbe8a137b	-0.26967987
152	0x3e56d1d9	0.20978488
153	0x3e16d63e	0.14730164
154	0xbdf45016	-0.11929338
155	0x3da52db7	0.0806536
156	0x3d973ed2	0.07385029
157	0xbd9c57dd	-0.07633946
158	0xbd565b44	-0.05233313
159	0x3d90e166	0.07074241
160	0x3d8e44a6	0.069466874
161	0xbe271279	-0.1631564
162	0x3e4659a1	0.19370128
163	0xbe300d27	-0.17192517
164	0xbf2a608b	-0.6655356
165	0xbdb30192	-0.08740534
166	0xbe9dbe27	-0.30809137
167	0xbe63e24c	-0.22254294
168	0x3d5f3d31	0.054501716
169	0x3ebf6ff5	0.37390104
170	0xbef01c10	-0.4689641
171	0xbf13212a	-0.5747248
172	0x3dc20b21	0.09474779
173	0xbe95b5d8	-0.29240298
174	0xbf159629	-0.5843225
175	0x3e1194b5	0.14216883
176	0x3e5149a6	0.20438251
177	0x3e508659	0.2036375
178	0xbead469f	-0.33842942
179	0xbfde18cd	-1.7351319
180	0xbe8faae5	-0.2806007
181	0x3e4a3fab	0.1975085
182	0x3e397781	0.18111993
183	0x3e91ac61	0.28451827
184	0x3c15c1d4	0.0091404505
185	0x3ec56111	0.38550618
186	0x3e2a58e7	0.16635476
187	0x3d9d67df	0.076858275
188	0xbb6beb21	-0.0035998302
189	0x3e3530a8	0.17694342
190	0xbd56c895	-0.052437384
191	0xbf85e122	-1.045933
192	0x3e1bbc35	0.15208514
193	0xbcc04ee4	-0.023475118
194	0xbcec27fe	-0.028827664
195	0xbec8b934	-0.392038
196	0xbd83c32d	-0.06433711
197	0xbfb8b36d	-1.4429756
198	0x3ecf8c13	0.40536556
199	0xbf1f179a	-0.6214539
200	0x3e323804	0.17404181
201	0x3cdb3f2c	0.026763521
202	0xbfc6c036	-1.5527408
203	0xbcf9feaf	-0.03051695
204	0x3e17c154	0.14819843
205	0x3e302702	0.1720238
206	0xbeb32078	-0.3498571
207	0xbd6c63e8	-0.057712466
208	0xbf1c9bc6	-0.6117519
209	0x3ccfeb92	0.025380883
210	0x3d212c0a	0.03934864
211	0xbf70209f	-0.93799776
212	0xbcadab80	-0.021199942
213	0xbaf00a0e	-0.0018313543
214	0x3e34103a	0.17584315
215	0x3ea57d57	0.3232219
216	0xbf90150c	-1.1256423
217	0xbd98995b	-0.07451125
218	0xbc23ab12	-0.009989517
219	0xbf5325ee	-0.8247975
220	0xbd8da95e	-0.0691707
221	0xbec84552	-0.39115387
222	0xbc1d307d	-0.00959408
223	0x3e9cb453	0.30606326
224	0xbdcb6021	-0.099304445
225	0xbddf2dd9	-0.108974166
226	0x3ef2c242	0.47413832
227	0x3f162312	0.58647263
228	0x3c960de1	0.018317165
229	0x3f183147	0.5945019
230	0xbd3719c3	-0.044702303
231	0xbecf2145	-0.4045507
232	0xbf10f7e9	-0.5662828
233	0xbf34328b	-0.7038962
234	0x3ebd280d	0.3694462
235	0xbf44bec9	-0.76853615
236	0x3dc7e839	0.0976109
237	0x3e5679ac	0.20944852
238	0x3f15019e	0.5820559
239	0x3e84b63d	0.25920287
240	0xbf88f8f4	-1.0700974
241	0x3df20a73	0.11818399
242	0xbeaa1bdd	-0.33224383
243	0x3f2674d1	0.65022
244	0xbdfc702a	-0.12326081
245	0x3c8cc392	0.017183099
246	0x3a67647e	0.0008826925
247	0xbe8fb79e	-0.28069776
248	0x3f863d16	1.0487392
249	0xbd0c4d7d	-0.034253586
250	0x3da96f90	0.08273232
251	0xbef6d19a	-0.48206788
252	0xbf3ed1da	-0.7453896
253	0xbf45124b	-0.7698104
254	0xbef0523f	-0.4693775
255	0xbec364e3	-0.38162908

layer2.bias f4 [128]
0	0xbd20ad52	-0.03922779
1	0x3dda3379	0.10654349
2	0xbdba1acd	-0.09087143
3	0x3eb7d61e	0.35905546
4	0xbe91878f	-0.28423735
5	0xbc5c4de5	-0.013446306
6	0x3e96b7b1	0.2943702
7	0x3e34e743	0.17666344
8	0xbddd1cf2	-0.107965365
9	0x3e6b76ce	0.22994539
10	0xbe060d99	-0.13091125
11	0x3c67ad65	0.014140462
12	0x3e216b8c	0.15763682
13	0xbe18f23e	-0.14936158
14	0x3e9d3516	0.30704564
15	0x3e53071d	0.20608182
16	0x3c877196	0.016533654
17	0x3d04dac0	0.03243518
18	0x3e1370e3	0.14398532
19	0x3d343051	0.04399139
20	0x3cea95fb	0.02863597
21	0x3dd79fed	0.1052855
22	0x3e18a5a7	0.14906941
23	0x3c73ad69	0.014872887
24	0x3e850b3c	0.25985134
25	0x3c336906	0.0109503325
26	0xbd0e714e	-0.034776025
27	0x3de4aa87	0.11165338
28	0x3e31e874	0.1737383
29	0x3e44bb94	0.1921218
30	0xbd369504	-0.044575706
31	0xba86bdb9	-0.001027993
32	0x3df87b38	0.12132877
33	0xbe125949	-0.14291872
34	0x3d5e8088	0.054321796
35	0x3d092b1b	0.033488374
36	0x3d58c15c	0.052918777
37	0xbd8de328	-0.06928092
38	0xbaa15cfc	-0.0012311037
39	0xbcc002ac	-0.023438774
40	0x3d7f62a1	0.06234992
41	0x3ea866c7	0.32890913
42	0x3df092cb	0.117467485
43	0xbd3c89f9	-0.04603002
44	0x3e4fd8bc	0.20297521
45	0x3de4f0f6	0.11178772
46	0xbd927751	-0.07151664
47	0x3de4334e	0.11142598
48	0x3dbd4d55	0.092432655
49	0x3e12b04f	0.14325069
50	0xba459ca5	-0.00075382955
51	0x3e8180ec	0.25293672
52	0x3c18f77e	0.0093363505
53	0x3e996d6e	0.299663
54	0x3c2543f4	0.010087002
55	0xbbfcc17c	-0.007713495
56	0xbe037792	-0.12838581
57	0xbdb04d51	-0.08608497
58	0x3dc216d9	0.09477014
59	0x3e57b3cf	0.21064685
60	0x3e2e2fd2	0.1701043
61	0x3e1ce4f4	0.15321714
62	0x3d67febd	0.05663942
63	0x3d2d56d2	0.042319126
64	0x3d8e222e	0.06940113
65	0x3e99f40f	0.30069014
66	0xbbfc32d9	-0.007696491
67	0xbdf205ab	-0.11817487
68	0x3e814d84	0.25254452
69	0x3e1e8cbe	0.15483376
70	0xbbd9dc89	-0.0066486043
71	0x3e44b7b8	0.19210708
72	0xbe32f8b4	-0.17477685
73	0xbe478a24	-0.1948629
74	0xbc82a9c2	-0.015950087
75	0x3e52c4f4	0.20582944
76	0x3c3fdb05	0.011709933
77	0x3db1fe17	0.08691042
78	0x3cfb404c	0.030670308
79	0x3d41eddb	0.047345977
80	0xbdb75a59	-0.08952779
81	0x3e0bceee	0.13653156
82	0xbdb41065	-0.087921895
83	0x3e4c314e	0.19940683
84	0xbe4b9c2b	-0.19883792
85	0xbdd7a7f5	-0.10530082
86	0xbd8bbc5b	-0.06823035
87	0xbe059876	-0.1304644
88	0xbde133e1	-0.10996223
89	0x3cc1ffdb	0.023681572
90	0x3e869b57	0.2629039
91	0x3b8cfb4e	0.004302419
92	0xbb2ae43e	-0.0026075984
93	0x3e7f49c3	0.24930482
94	0xbdbbfbd3	-0.09178891
95	0x3dc6c7ef	0.09706103
96	0x3d16d982	0.036828525
97	0x3e9b24e2	0.30301577
98	0xbd06bb1c	-0.032893285
99	0x3ea3e620	0.3201151
100	0x3e158480	0.14601326
101	0x3e93ed5d	0.2889203
102	0xbdd660bb	-0.104676686
103	0x3e702f14	0.23455459
104	0x3e36eee9	0.17864574
105	0x3e6f1804	0.23349005
106	0x3e9d8b52	0.30770355
107	0x3d743b66	0.05962696
108	0x3db49a25	0.08818463
109	0xbe065e98	-0.13122022
110	0x3e0eaccc	0.13933104
111	0xbe30283d	-0.1720285
112	0x3df86578	0.12128729
113	0xbd665e0e	-0.05624204
114	0x3d84a6ce	0.06477128
115	0x3e392503	0.18080525
116	0x3e857e8a	0.26073104
117	0x3e6366b1	0.22207142
118	0x3ec344b0	0.38138342
119	0x3e5e75b1	0.21724583
120	0x3d869a24	0.06572369
121	0xbd900734	-0.07032624
122	0x3e5ae437	0.2137612
123	0x3e1fdd05	0.15611656
124	0xbdbf0543	-0.093271755
125	0x3e1edddb	0.15514319
126	0x3c905dba	0.017622817
127	0xbe5271f8	-0.20551288

layer3.weight f4 [16, 128]
0	0x3d9132f1	0.070897944
1	0x39004f35	0.00012236538
2	0x3b584b95	0.0033004035
3	0xbc09ad5c	-0.0084031485
4	0x3cc0dbee	0.02354237
5	0xbb00fd67	-0.001968229
6	0x3b0be13f	0.0021343974
7	0xbc56043d	-0.013062534
8	0x3c81c7f1	0.01584241
9	0xbd156ca6	-0.03648057
10	0xbcf2a79d	-0.02962094
11	0x3c605de9	0.013694265
12	0xbbf0793d	-0.0073386715
13	0x3c2586e3	0.01010296
14	0x3aabd4bd	0.0013109666
15	0x3a90aaa6	0.0011037185
16	0x3c5431da	0.012951339
17	0x3ba96d8d	0.00517053
18	0xbb9cc913	-0.004784712
19	0x3c02a5e7	0.0079741245
20	0x3b9e9447	0.0048394534
21	0x3c58a67c	0.013223287
22	0xbc6acdca	-0.0143312905
23	0x3c707fbc	0.014678892
24	0xbbc40e02	-0.005983115
25	0x3b580240	0.0032960325
26	0x39d94634	0.0004144177
27	0xbd029823	-0.03188337
28	0x3bbed3c8	0.005823586
29	0x3a4590fe	0.0007536559
30	0xbd1cbe4d	-0.038267422
31	0xb9bac5d8	-0.0003562409
32	0xbb82f48d	-0.003996438
33	0x3bc3b9c0	0.005973071
34	0xbc2e6aa1	-0.0106455395
35	0x3b7f516b	0.003895844
36	0x3c2df070	0.010616407
37	0x3c9928bc	0.018696181
38	0x3bed3bab	0.007239779
39	0x3b29363b	0.0025819677
40	0xbc0f42f3	-0.008743989
41	0xbbbe3ff0	-0.005805962
42	0xbc080d7f	-0.008303999
43	0x3a18f06d	0.0005834166
44	0xbb539438	-0.003228439
45	0xbb9d07de	-0.0047921976
46	0xbc675148	-0.0141185
47	0x3c39956f	0.011327132
48	0xbc137f24	-0.009002481
49	0xbb07c2ed	-0.002071555
50	0x3b00b110	0.0019636787
51	0xbba0f671	-0.0049121906
52	0x3ce170e4	0.02751965
53	0x3c17b844	0.009260241
54	0xbb769074	-0.0037622722
55	0x3da7ca82	0.08192922
56	0x3b4823b4	0.003053886
57	0x3b28927f	0.0025722084
58	0xbb43d28d	-0.0029880137
59	0xbaa9e5a2	-0.0012962113
60	0xbbdc13e2	-0.0067162374
61	0xba598145	-0.0008297156
62	0xbaaa095f	-0.0012972764
63	0xbc02f834	-0.007993747
64	0xbaf7f06f	-0.0018916259
65	0xbccc9814	-0.02497486
66	0x38e8510e	0.0001107772
67	0x3bef4be7	0.0073027494
68	0xbc06d782	-0.008230092
69	0x3bfc8295	0.0077059963
70	0xbcb4613c	-0.022019021
71	0xbad55a09	-0.0016277443
72	0x39a58bdd	0.0003157546
73	0xbb3f9571	-0.002923336
74	0x3c0d1c43	0.008612695
75	0xbb9a231d	-0.004703893
76	0x3b97302c	0.004613897
77	0x3a19ea00	0.00058713555
78	0xbbac394c	-0.0052558538
79	0x3be012d3	0.0068381815
80	0x3d4535c2	0.04814697
81	0xbc4157d9	-0.01180073
82	0x3ae495d9	0.0017439678
83	0x3c0587c2	0.008150043
84	0xb9230efc	-0.00015550473
85	0x3ce51cda	0.027967859
86	0xbb5cb9a6	-0.003367999
87	0xbc66fdbf	-0.014098584
88	0x3d0c3f30	0.034239948
89	0xbc04ed40	-0.008113205
90	0x3c32381a	0.0108776335
91	0xbc3c2436	-0.011483243
92	0xbbc0e0e8	-0.005886186
93	0x3a966b74	0.0011476115
94	0xbd715ed8	-0.05892834
95	0xbba1881f	-0.004929557
96	0x3b73c0bc	0.0037193736
97	0xbb9bdd1d	-0.0047565834
98	0xbc1c3bd4	-0.0095357485
99	0x3bc7b7ee	0.006094924
100	0xba2ba9c5	-0.000654843
101	0xb996e588	-0.00028781244
102	0xbcef6501	-0.029222967
103	0x3a5a823d	0.0008335447
104	0x3bc977c9	0.0061483127
105	0x3c2f2429	0.010689774
106	0xbb9d80e6	-0.0048066257
107	0x3cecd6b3	0.02891097
108	0x3b90cec6	0.0044191806
109	0xba0d45fa	-0.00053891505
110	0x3b85080a	0.004059796
111	0xbbad53a5	-0.005289512
112	0x3c4440bf	0.011978327
113	0x3afd7509	0.0019337247
114	0xbbb46c94	-0.0055061076
115	0xbc7e9ccc	-0.015540313
116	0x3c03950a	0.008031139
117	0x3acf2550	0.0015803967
118	0xbb7e749a	-0.0038826824
119	0xbc65e544	-0.014031712
120	0x3a9f2177	0.0012140711
121	0x3c5ae1b7	0.013359479
122	0x3b82bf68	0.0039901026
123	0xbbb270f3	-0.0054455935
124	0x3d951740	0.07279825
125	0x3d243f75	0.04009958
126	0xbdbd91b1	-0.09256304
127	0xba8cc767	-0.0010740579
128	0xbd69b3c3	-0.0570562
129	0xb7bba09f	-2.2366932e-05
130	0x3bae7259	0.00532369
131	0x3acc587f	0.0015590339
132	0xbc8359f8	-0.016034111
133	0xbc6a0cb5	-0.014285256
134	0xbc276d39	-0.010218912
135	0xbac55bc9	-0.0015057261
136	0x3d42d62b	0.047567528
137	0xbc95485f	-0.018222986
138	0x38eae3e2	0.00011200436
139	0x3ba3e541	0.0050016944
140	0xbb8fb158	-0.0043851547
141	0x3af89ef9	0.0018968276
142	0xb9dd87ab	-0.00042253485
143	0xba8e58d3	-0.0010860212
144	0xbacab2b5	-0.0015464636
145	0xb9ffe4c5	-0.00048807837
146	0x3ba29a78	0.0049622618
147	0xbb2a26b1	-0.0025963003
148	0x3b270f8f	0.0025491451
149	0x3c174b8d	0.009234321
150	0x3b97b00a	0.00462914
151	0x3ab081a3	0.0013466369
152	0xbbab2e58	-0.0052240305
153	0xba93b305	-0.0011268562
154	0x3ba3c55e	0.0049978932
155	0x3c2709ae	0.010195179
156	0x3c6e0dae	0.014529629
157	0xbc61cc4e	-0.01378162
158	0x3dac8aed	0.084249355
159	0xb8ed32d8	-0.00011310511
160	0xbb4f4502	-0.0031626825
161	0xbb01043a	-0.0019686357
162	0x3c4307d9	0.0119037265
163	0x3bfa4903	0.007638098
164	0xbb27c7d6	-0.002560129
165	0xbca1695c	-0.01970356
166	0x3af74ca4	0.0018867445
167	0x3ccf2ccb	0.025289914
168	0xbaa7d99a	-0.0012805939
169	0xbbdbee43	-0.0067117526
170	0xbaa1d692	-0.0012347272
171	0xbd156adc	-0.036478862
172	0xbbd89548	-0.0066095926
173	0x3c2c7283	0.010525349
174	0xbb150a5e	-0.0022741775
175	0x3b3f74c2	0.002921388
176	0xbb07c049	-0.0020713976
177	0x3c19b5a3	0.0093816845
178	0xbc07f671	-0.008298502
179	0xbb46c943	-0.0030332364
180	0xbd57d4ba	-0.052693106
181	0xbcc40f40	-0.023933053
182	0x3b38d3e7	0.0028202476
183	0xbd637d5d	-0.055539478
184	0x3c70d9ab	0.014700334
185	0x3a82c100	0.0009975731
186	0xbc10a880	-0.008829236
187	0xbad46f28	-0.0016207444
188	0x3a2df58d	0.0006636016
189	0x3a0e011d	0.0005417036
190	0x3ac0e574	0.001471682
191	0x3bac49eb	0.005257835
192	0x3aeaba2a	0.0017908264
193	0xbc8ff5cd	-0.017573262
194	0xbbeffefd	-0.007324098
195	0x3c2891ce	0.010288669
196	0xbb968e8c	-0.0045946296
197	0x3be3f3d4	0.006956557
198	0xbcd3f20b	-0.025872251
199	0x3b94e3c0	0.0045437515
200	0x3aae87e4	0.0013315645
201	0xbc4c116d	-0.0124553265
202	0xbbd0a8a1	-0.0063677584
203	0x3b8dc1fe	0.004326104
204	0x3ba1dee2	0.0049399
205	0xb9ca644c	-0.0003860317
206	0x3a7a95ec	0.0009559083
207	0xbbf2ef19	-0.0074137566
208	0xbca253ac	-0.019815288
209	0x3a9ffe38	0.00122065
210	0xba21155a	-0.0006144844
211	0xbbd9d571	-0.0066477587
212	0xbac52d57	-0.001504342
213	0xbcf92bea	-0.030416448
214	0x3c02f474	0.0079928525
215	0xbada150d	-0.0016638354
216	0xbde2e914	-0.110796124
217	0x3c3b4ccd	0.011431885
218	0xbaf1a981	-0.0018437357
219	0xbc17c4ae	-0.009263201
220	0xbb506ada	-0.003180197
221	0xbb3c8407	-0.0028765218
222	0xbd12c9b3	-0.035836887
223	0x38272abb	3.98557e-05
224	0x3bc0eb72	0.0058874423
225	0xbb6358ba	-0.0034690336
226	0xbd6d28c6	-0.057900213
227	0x3b2a9fec	0.0026035262
228	0xb95b815c	-0.00020933658
229	0x3b8bf12e	0.004270694
230	0x3bf12c6b	0.0073600314
231	0xbbfef8e4	-0.007781135
232	0x3821a238	3.853647e-05
233	0x3baf8561	0.005356476
234	0xbc087f1f	-0.008331089
235	0x3bd1b393	0.0063995807
236	0x3b83dd4e	0.0040241843
237	0xbab3c8b3	-0.0013716429
238	0x3acf8b8d	0.0015834436
239	0x3b8e7245	0.004347118
240	0xbc837aff	-0.01604986
241	0xbb94495d	-0.004525347
242	0xba69ab88	-0.0008913805
243	0xbb013c2a	-0.0019719698
244	0x3c0e31aa	0.008678833
245	0x3c13953a	0.009007746
246	0x3b9fe3ef	0.0048794667
247	0x39ad1f5d	0.000330205
248	0x3b60e0ac	0.0034313602
249	0x3c8df5de	0.017329153
250	0x399d91ba	0.00030053948
251	0xbba365b2	-0.0049864883
252	0xbd63d625	-0.055624146
253	0x3c92be4c	0.017913006
254	0x3d0ec154	0.03485234
255	0x3bcaefd3	0.00619314

layer3.bias f4 [16]
0	0x3c7968d4	0.015222747
1	0x3ca1aea8	0.019736603
2	0xbb5c9203	-0.0033656366
3	0x3cc1da78	0.023663744
4	0xbbf0369a	-0.0073307278
5	0xbb99bf32	-0.0046919817
6	0xbdb6c70f	-0.08924686
7	0xbc802c7c	-0.015646212
8	0xba33e112	-0.0006861846
9	0x3c2643fd	0.010148046
10	0x3c65cf62	0.014026495
11	0xbdff2ac5	-0.124593295
12	0xbc5bc41e	-0.013413457
13	0xbbd7a7c7	-0.00658128
14	0xbc566396	-0.013085267
15	0x3d90f890	0.070786595

exp_avg f4 [128, 16]
0	0xb6682956	-3.4594755e-06
1	0xb5ef78a1	-1.7841995e-06
2	0xb5a93171	-1.260587e-06
3	0xb3a57a2f	-7.705636e-08
4	0xb242e052	-1.1343291e-08
5	0x360dd075	2.1131975e-06
6	0x39440866	0.00018695145
7	0x35b75304	1.3658723e-06
8	0x347a2adb	2.3298655e-07
9	0xb56187f7	-8.4016887e-07
10	0x35134c8d	5.4873163e-07
11	0xb9720dad	-0.00023084013
12	0xb581bd4b	-9.66634e-07
13	0xb4b72bb4	-3.4118204e-07
14	0x34c7f95e	3.7248077e-07
15	0x39568c8f	0.00020460993
16	0x368699a6	4.0113982e-06
17	0x3702a060	7.785944e-06
18	0xb652713f	-3.1358356e-06
19	0x3659939c	3.242144e-06
20	0xb53227de	-6.636818e-07
21	0xb69bfe4f	-4.6489654e-06
22	0xb9b10487	-0.00033763444
23	0xb5739514	-9.074149e-07
24	0x36356ed0	2.7035603e-06
25	0x358e71c1	1.0612931e-06
26	0xb532e61d	-6.6645026e-07
27	0xb93537af	-0.00017282249
28	0xb6a820fe	-5.010631e-06
29	0xb697fcd6	-4.5295847e-06
30	0xb64eaaf1	-3.0795893e-06
31	0xb8188280	-3.636116e-05
32	0x3612ced3	2.1876083e-06
33	0x367684ec	3.6734227e-06
34	0x35833ddf	9.778267e-07
35	0xb6c15fb5	-5.76299e-06
36	0xb4d74b37	-4.0101597e-07
37	0xb6cc993c	-6.0975126e-06
38	0xb917d7b8	-0.00014480844
39	0xb60720bd	-2.0135624e-06
40	0x35cc60c6	1.5227349e-06
41	0xb5487519	-7.4676205e-07
42	0x36629df6	3.376857e-06
43	0x3a1d1b26	0.000599312
44	0xb68dbb7c	-4.2239535e-06
45	0xb58613b4	-9.989512e-07
46	0xb5be12e4	-1.4161601e-06
47	0x33ddf86d	1.0336303e-07
48	0xb7725837	-1.4444863e-05
49	0x351e034a	5.8864373e-07
50	0x371336e1	8.77466e-06
51	0x35b5da8f	1.354916e-06
52	0xb6949d53	-4.4290587e-06
53	0xb6889eec	-4.071617e-06
54	0xb981022f	-0.00024606424
55	0x36566c02	3.1951354e-06
56	0xb587b0fc	-1.0109793e-06
57	0xb66a6568	-3.4927743e-06
58	0xb626bce7	-2.4845883e-06
59	0x3a952bb1	0.0011380819
60	0x3705f82b	7.985199e-06
61	0x36b56f09	5.4071465e-06
62	0xb42f2c80	-1.6314334e-07
63	0x399eb114	0.00030268042
64	0xb6166715	-2.2411743e-06
65	0x361ebd42	2.3653997e-06
66	0x36099afe	2.0504808e-06
67	0xb6c117ea	-5.754632e-06
68	0xb5adf72c	-1.2961441e-06
69	0xb5dfa78b	-1.6663556e-06
70	0x39298f7c	0.00016170548
71	0x3605b989	1.992654e-06
72	0x3500a0c6	4.791767e-07
73	0xb5c14756	-1.4400382e-06
74	0xb5cc7771	-1.5233946e-06
75	0x393a8c52	0.00017790616
76	0xb5f2663a	-1.8060157e-06
77	0x35ac2087	1.2824465e-06
78	0x339edb4f	7.39734e-08
79	0x391921d0	0.00014603813
80	0xb6e0cae7	-6.699341e-06
81	0xb44a73ef	-1.8854892e-07
82	0xb5fe1f9b	-1.8933673e-06
83	0xb50341d6	-4.8897107e-07
84	0xb63439da	-2.6855764e-06
85	0xb3d13694	-9.7422486e-08
86	0xb9b390c6	-0.00034249405
87	0x3716cd5c	8.988511e-06
88	0x351b744a	5.791122e-07
89	0xb66e4cdd	-3.5509504e-06
90	0xb6f40aad	-7.2730095e-06
91	0xba0bca08	-0.0005332534
92	0x34ad6e37	3.2303953e-07
93	0xb609d138	-2.0536372e-06
94	0x355732ba	8.016756e-07
95	0x39d6f0e9	0.00040996753
96	0xb687d3c8	-4.047968e-06
97	0xb708a367	-8.144277e-06
98	0x36460800	2.9508956e-06
99	0xb765b852	-1.3692379e-05
100	0x36be44da	5.6704566e-06
101	0x370fe6b4	8.577179e-06
102	0x3a268233	0.00063517987
103	0x368681b4	4.0086106e-06
104	0xb5770eee	-9.2036396e-07
105	0xb684bfa4	-3.9562165e-06
106	0xb6938d17	-4.3973664e-06
107	0xb83c0cbe	-4.483456e-05
108	0x365b48b9	3.2675873e-06
109	0x36db1801	6.529503e-06
110	0xb6355ba3	-2.7024441e-06
111	0x3a56086a	0.0008164706
112	0xb71fd76a	-9.5272935e-06
113	0xb8695553	-5.5630993e-05
114	0xb621b134	-2.4094015e-06
115	0xb8187734	-3.635064e-05
116	0x3786f083	1.6086042e-05
117	0x37fe4f51	3.0316094e-05
118	0x3ad2c759	0.0016081139
119	0xb6544f15	-3.1636494e-06
120	0x370e09b2	8.466117e-06
121	0x3678b78d	3.706172e-06
122	0xb8031478	-3.1251897e-05
123	0x3a832cd9	0.0010007872
124	0x382c97f6	4.114952e-05
125	0x3820f1f9	3.8372327e-05
126	0xb611b588	-2.1712349e-06
127	0xba5bad33	-0.00083799957
128	0xb5baa054	-1.3904742e-06
129	0xb5887f72	-1.0169881e-06
130	0xb654b7f8	-3.1697546e-06
131	0xb70c0bb4	-8.347375e-06
132	0xb47d69fa	-2.3601015e-07
133	0xb66511ac	-3.4133946e-06
134	0xba5aa583	-0.0008340703
135	0x354b31ce	7.569587e-07
136	0x3664a963	3.4073244e-06
137	0xb5c25759	-1.4479548e-06
138	0xb6b703e3	-5.4542775e-06
139	0x39e8478e	0.000443038
140	0xb54514a4	-7.3418255e-07
141	0xb430cb6d	-1.6465283e-07
142	0xb4da9543	-4.0714266e-07
143	0xb909e450	-0.00013150391
144	0xb70baba7	-8.325012e-06
145	0x36903351	4.2975084e-06
146	0x3639eb72	2.7704195e-06
147	0xb6c416dc	-5.8439164e-06
148	0xb60cb5b0	-2.0967382e-06
149	0x35a90c9b	1.259515e-06
150	0x3a032635	0.0005002947
151	0x370fe5fd	8.5770125e-06
152	0xb6230154	-2.4289666e-06
153	0xb64c2e71	-3.0425401e-06
154	0xb52c2617	-6.413042e-07
155	0xb92fa4a6	-0.00016750637
156	0xb60f6bde	-2.1371447e-06
157	0xb606254d	-1.9989268e-06
158	0xb6641a50	-3.3989963e-06
159	0x3a84b154	0.0010123649
160	0xb7cbd50e	-2.4298697e-05
161	0xb7491f37	-1.1987801e-05
162	0x377e9530	1.5174315e-05
163	0xb7bf426e	-2.2799908e-05
164	0x36b6f85e	5.4529364e-06
165	0x364c9645	3.0485837e-06
166	0x39922d91	0.0002788124
167	0x37a144f5	1.9224806e-05
168	0xb6c922ff	-5.994341e-06
169	0xb783064d	-1.5619351e-05
170	0xb6cd9b5a	-6.1275614e-06
171	0x3a79d7c4	0.0009530748
172	0x372c5b27	1.0273222e-05
173	0x37291313	1.0077626e-05
174	0x378d1a07	1.682063e-05
175	0x3a5a8cf3	0.0008337043
176	0x00000000	0.0
177	0x00000000	0.0
178	0x00000000	0.0
179	0x00000000	0.0
180	0x00000000	0.0
181	0x00000000	0.0
182	0x00000000	0.0
183	0x00000000	0.0
184	0x00000000	0.0
185	0x00000000	0.0
186	0x00000000	0.0
187	0x00000000	0.0
188	0x00000000	0.0
189	0x00000000	0.0
190	0x00000000	0.0
191	0x00000000	0.0
192	0xb8013c3b	-3.081209e-05
193	0xb725c6eb	-9.881081e-06
194	0xb64e6698	-3.075611e-06
195	0xb79a81b4	-1.8418628e-05
196	0xb66627b5	-3.4295783e-06
197	0xb56036c0	-8.3526174e-07
198	0xbab30be4	-0.001366016
199	0x37648820	1.3621553e-05
200	0xb6d56e8f	-6.3607654e-06
201	0xb72725d3	-9.962782e-06
202	0xb78a8f82	-1.6517708e-05
203	0x38bd2a83	9.020141e-05
204	0x37601eb0	1.3358585e-05
205	0x37077f2d	8.0762375e-06
206	0x37879f64	1.6167476e-05
207	0xb9cea6d3	-0.00039415676
208	0xb6926f7d	-4.364118e-06
209	0x35195bd6	5.713058e-07
210	0x3531d420	6.624632e-07
211	0xb67c809a	-3.7625782e-06
212	0x35091733	5.1070236e-07
213	0x351d9b58	5.871311e-07
214	0x39961c28	0.00028631208
215	0x363a105a	2.7725678e-06
216	0xb53bd4a5	-6.9972367e-07
217	0xb5205fa4	-5.974382e-07
218	0xb588fc6f	-1.0206257e-06
219	0xb841b6ce	-4.6185036e-05
220	0x3354ff08	4.9592046e-08
221	0xb5a9af16	-1.2642438e-06
222	0x3688c188	4.075646e-06
223	0xb8c3269a	-9.305515e-05
224	0x377ecd4f	1.5187382e-05
225	0x37a5a0ad	1.9744353e-05
226	0xb6c7a8d7	-5.9503177e-06
227	0x3725053f	9.835988e-06
228	0xb6d854bd	-6.4471665e-06
229	0xb6b7b9b4	-5.4754437e-06
230	0x39678fbe	0.00022083425
231	0x35a1557b	1.2020313e-06
232	0xb709cd0d	-8.213578e-06
233	0x36ad9910	5.1736206e-06
234	0x3604bec1	1.9780566e-06
235	0xbacca8d3	-0.0015614278
236	0xb6e714af	-6.8867444e-06
237	0xb70db1b9	-8.445634e-06
238	0x3631fd52	2.6522507e-06
239	0xba6bc839	-0.0008994374
240	0x3580dc8c	9.600931e-07
241	0x34e32824	4.231125e-07
242	0xb65d5a82	-3.2984249e-06
243	0xb67ff376	-3.8139674e-06
244	0x35959df7	1.1147339e-06
245	0xb596bc83	-1.1230735e-06
246	0xb99f67c9	-0.0003040417
247	0xb6e01125	-6.677716e-06
248	0x35e24495	1.6858272e-06
249	0x36162d1d	2.2378001e-06
250	0xb65acbbb	-3.2603118e-06
251	0x39c79468	0.0003806681
252	0x35bd86bc	1.412081e-06
253	0x3622d4c6	2.4263732e-06
254	0xb5cb92e5	-1.516743e-06
255	0xba127764	-0.00055872486

exp_avg_sq f4 [128, 16]
0	0x30126749	5.326127e-10
1	0x30349fae	6.5710537e-10
2	0x2f69832c	2.1237828e-10
3	0x306756cd	8.416066e-10
4	0x2f00b223	1.1704819e-10
5	0x3007db99	4.942478e-10
6	0x36bb5ca6	5.58382e-06
7	0x2fbccf65	3.4344363e-10
8	0x2ee137fc	1.024176e-10
9	0x2f06dc05	1.2265396e-10
10	0x30007e6a	4.6745774e-10
11	0x369e3a32	4.7155418e-06
12	0x300c0d4d	5.0950605e-10
13	0x2fd547ea	3.8795572e-10
14	0x300c5627	5.1054133e-10
15	0x368232d0	3.8802173e-06
16	0x2fe71557	4.2033818e-10
17	0x3089190c	9.975181e-10
18	0x2f86951f	2.4480415e-10
19	0x30644360	8.304166e-10
20	0x2f09d48f	1.2535593e-10
21	0x2fdbc2d9	3.9974316e-10
22	0x3619436f	2.2838028e-06
23	0x2f5a25f0	1.9840463e-10
24	0x2e6178f2	5.1266498e-11
25	0x2f4ebbf7	1.880237e-10
26	0x2fc38d04	3.557049e-10
27	0x35aacba6	1.2725257e-06
28	0x30154870	5.4308824e-10
29	0x3014bd66	5.411124e-10
30	0x2f937bee	2.6827202e-10
31	0x35f96467	1.8581167e-06
32	0x2f909f04	2.6306435e-10
33	0x3080fc18	9.384875e-10
34	0x2f953c2f	2.7145705e-10
35	0x305eecd6	8.1099694e-10
36	0x2f17b812	1.3798765e-10
37	0x304dfc25	7.4936884e-10
38	0x3657eebb	3.2176456e-06
39	0x2fd76f46	3.9187337e-10
40	0x2f3539aa	1.648234e-10
41	0x2f8c9a88	2.5575653e-10
42	0x2fd87692	3.937442e-10
43	0x374e72d7	1.2305295e-05
44	0x301ddeb9	5.7432775e-10
45	0x2f841203	2.4023458e-10
46	0x2fccaab1	3.7228667e-10
47	0x365b9814	3.2722064e-06
48	0x31b3411c	5.2169877e-09
49	0x31ca4a40	5.887415e-09
50	0x303e1375	6.914925e-10
51	0x30e4c5d4	1.664541e-09
52	0x3017eff3	5.527447e-10
53	0x30bb30cd	1.3619911e-09
54	0x35dea6c1	1.6588821e-06
55	0x2fa468fb	2.990602e-10
56	0x2f3191f1	1.6149905e-10
57	0x2f7583cf	2.2329448e-10
58	0x30bec37c	1.387988e-09
59	0x364a952d	3.0187177e-06
60	0x316a46b2	3.4091667e-09
61	0x30c567dc	1.4363155e-09
62	0x311c2954	2.272448e-09
63	0x3706c10a	8.031968e-06
64	0x2f5b2dba	1.993418e-10
65	0x3041624a	7.035267e-10
66	0x2f184dfd	1.3852026e-10
67	0x2f196a97	1.3953137e-10
68	0x2ea264ac	7.38479e-11
69	0x2f2500df	1.5006972e-10
70	0x3518e4a2	5.6957117e-07
71	0x2e6fa31a	5.448717e-11
72	0x2dbe333c	2.1623252e-11
73	0x2e5993a0	4.9471205e-11
74	0x2ee195cf	1.0258427e-10
75	0x35d6e6ce	1.6011415e-06
76	0x2fc2062d	3.5292783e-10
77	0x2f49ea6f	1.8364131e-10
78	0x2f7a0bf5	2.2741616e-10
79	0x360b0a22	2.0718512e-06
80	0x31b0538c	5.1317723e-09
81	0x313a07d7	2.7071019e-09
82	0x30216ab5	5.87231e-10
83	0x314065f7	2.7997638e-09
84	0x2f8eb408	2.595757e-10
85	0x30d8445b	1.5735496e-09
86	0x372f3cf1	1.0445002e-05
87	0x314f555f	3.0170992e-09
88	0x2f8d302c	2.568198e-10
89	0x2f97ec76	2.7634756e-10
90	0x318db375	4.124042e-09
91	0x371285cd	8.733431e-06
92	0x313772f3	2.6695346e-09
93	0x30fa3257	1.8204201e-09
94	0x308e131c	1.0337291e-09
95	0x376de954	1.4180627e-05
96	0x302e3184	6.3371197e-10
97	0x3065b27f	8.3563373e-10
98	0x2f759ea3	2.2338979e-10
99	0x3045d241	7.196697e-10
100	0x2f4080a9	1.7508008e-10
101	0x2f854069	2.4238325e-10
102	0x360fa30e	2.140357e-06
103	0x2f05dcbc	1.21747e-10
104	0x2e49cbe8	4.5883214e-11
105	0x2f3597fe	1.6515853e-10
106	0x2fc84dfd	3.6435202e-10
107	0x35f27c65	1.8066609e-06
108	0x300bcfa3	5.0862975e-10
109	0x3009f441	5.0187415e-10
110	0x2f5ce4bb	2.0090145e-10
111	0x362f566e	2.612734e-06
112	0x32649b8b	1.3306713e-08
113	0x32bae766	2.1758478e-08
114	0x319d3cd3	4.5762163e-09
115	0x32bf04d9	2.2237531e-08
116	0x315249dd	3.0601008e-09
117	0x321814ca	8.852291e-09
118	0x385b708e	5.2318494e-05
119	0x319f8b07	4.6433146e-09
120	0x31000348	1.8628317e-09
121	0x310644ce	1.9538677e-09
122	0x323e47b6	1.1075761e-08
123	0x388adc40	6.6213775e-05
124	0x3244eecb	1.1462997e-08
125	0x321b5780	9.042083e-09
126	0x31fa13c9	7.278207e-09
127	0x3858b01f	5.166244e-05
128	0x2f5111d8	1.9014779e-10
129	0x3026f8a3	6.074378e-10
130	0x2f366ed1	1.6592173e-10
131	0x3033279b	6.5176103e-10
132	0x2ea67737	7.569983e-11
133	0x2fc872bf	3.646132e-10
134	0x3649f056	3.0091228e-06
135	0x2f6e1e78	2.1656799e-10
136	0x2e5f5e88	5.078829e-11
137	0x2ea5f2ae	7.54644e-11
138	0x2fd30274	3.838242e-10
139	0x360fb82f	2.141587e-06
140	0x2fb24b62	3.2431574e-10
141	0x2f9c48f3	2.8428068e-10
142	0x2f7b41d5	2.2851705e-10
143	0x35fcd18b	1.8836448e-06
144	0x31cbc5d2	5.930567e-09
145	0x31252d5a	2.403644e-09
146	0x30045797	4.8145793e-10
147	0x308e6794	1.0361298e-09
148	0x2f380f0d	1.674005e-10
149	0x3018bb54	5.5563487e-10
150	0x365e5868	3.3132037e-06
151	0x2fdcad01	4.0140694e-10
152	0x2ed1eb86	9.546057e-11
153	0x2ed4439b	9.652653e-11
154	0x30db3f49	1.5952334e-09
155	0x363e5d33	2.8366455e-06
156	0x3143946c	2.8460603e-09
157	0x30aa7ea0	1.2405117e-09
158	0x303028a1	6.4086164e-10
159	0x369bcaec	4.642983e-06
160	0x321e1b8d	9.203075e-09
161	0x3256f0d7	1.25112e-08
162	0x311551ff	2.1728963e-09
163	0x31abbadd	4.997999e-09
164	0x308fd316	1.0464614e-09
165	0x318d3e7a	4.110743e-09
166	0x37356e82	1.081417e-05
167	0x31188d95	2.2199391e-09
168	0x2fdac65e	3.9794917e-10
169	0x308bc219	1.0168747e-09
170	0x318f74d8	4.1751314e-09
171	0x373960bf	1.1049385e-05
172	0x31f035ec	6.9910495e-09
173	0x316056ae	3.2645562e-09
174	0x3187c29f	3.951143e-09
175	0x37cf840e	2.4737816e-05
176	0x00000000	0.0
177	0x00000000	0.0
178	0x00000000	0.0
179	0x00000000	0.0
180	0x00000000	0.0
181	0x00000000	0.0
182	0x00000000	0.0
183	0x00000000	0.0
184	0x00000000	0.0
185	0x00000000	0.0
186	0x00000000	0.0
187	0x00000000	0.0
188	0x00000000	0.0
189	0x00000000	0.0
190	0x00000000	0.0
191	0x00000000	0.0
192	0x326441cb	1.3286306e-08
193	0x3234f51b	1.05331095e-08
194	0x31190f36	2.2273077e-09
195	0x31b0e5ae	5.1483857e-09
196	0x3053c44e	7.704032e-10
197	0x314e2c1d	3.000202e-09
198	0x377fb730	1.5241836e-05
199	0x30cb725b	1.4802696e-09
200	0x2fc62a1c	3.604591e-10
201	0x303ab987	6.7930056e-10
202	0x31a34563	4.7518127e-09
203	0x3772c6d4	1.4470617e-05
204	0x320f39a5	8.336802e-09
205	0x318a2a94	4.021169e-09
206	0x3153bacc	3.0810723e-09
207	0x373e71a4	1.13513415e-05
208	0x30ed84ed	1.7281799e-09
209	0x3107e92f	1.9777635e-09
210	0x2fbefce9	3.4740502e-10
211	0x30ec3303	1.7185758e-09
212	0x2fb04470	3.206284e-10
213	0x30526289	7.653758e-10
214	0x35d82221	1.6103187e-06
215	0x3022c418	5.921392e-10
216	0x2eb9cd1d	8.4492614e-11
217	0x2fb825fa	3.349639e-10
218	0x30972ea4	1.0999952e-09
219	0x35acded0	1.2879846e-06
220	0x309e16dd	1.1502511e-09
221	0x3088e670	9.960797e-10
222	0x301dbe96	5.7387106e-10
223	0x36fe4788	7.578117e-06
224	0x3206a578	7.83745e-09
225	0x31c81b8e	5.8238987e-09
226	0x30a899cb	1.2267319e-09
227	0x31a1c864	4.7084985e-09
228	0x308f1c19	1.0412605e-09
229	0x312cf8da	2.517075e-09
230	0x378fd72a	1.7147122e-05
231	0x3176babc	3.5903858e-09
232	0x30408a42	7.004567e-10
233	0x3067f089	8.437913e-10
234	0x31ab1102	4.9786886e-09
235	0x373ebc7e	1.1368769e-05
236	0x317939d1	3.6267134e-09
237	0x316bf5e1	3.4336767e-09
238	0x31502fd1	3.0295164e-09
239	0x381f7cc0	3.8024737e-05
240	0x311c0b31	2.270735e-09
241	0x311469ec	2.1597044e-09
242	0x30236335	5.9440036e-10
243	0x30c05f06	1.3996846e-09
244	0x2fb343cc	3.2608083e-10
245	0x3017d3eb	5.5234634e-10
246	0x36df9215	6.662924e-06
247	0x3084a39e	9.650767e-10
248	0x2eedfda8	1.08225706e-10
249	0x30596585	7.908841e-10
250	0x30d68451	1.5608156e-09
251	0x3746afe9	1.1842677e-05
252	0x30af4dc9	1.2755034e-09
253	0x30885f8c	9.922458e-10
254	0x30cd2370	1.4925785e-09
255	0x35bb6843	1.396293e-06

exp_avg f4 [128]
0	0xb8bc8038	-8.988421e-05
1	0x394f253f	0.00019754934
2	0x39bf5859	0.00036496183
3	0xb913189e	-0.00014028183
4	0x39384d47	0.00017576395
5	0xb8c745c3	-9.5020536e-05
6	0xba01ef0d	-0.0004956581
7	0xbb65178d	-0.0034956664
8	0x39751c50	0.00023375568
9	0x392810f8	0.0001602805
10	0xb9884427	-0.0002599072
11	0x00000000	0.0
12	0x3916a829	0.0001436776
13	0x3879bfe3	5.9544935e-05
14	0x3a5dcce6	0.0008461013
15	0x394262cc	0.00018538086
16	0xba8f86db	-0.0010950224
17	0xba3b50ac	-0.0007145505
18	0x39f7a227	0.00047232324
19	0x3831735e	4.2307533e-05
20	0x3a6f544b	0.0009129687
21	0x39d7eef1	0.0004118602
22	0x37d87c28	2.5807021e-05
23	0x38d6801d	0.00010228178
24	0xb9ea1297	-0.00044645809
25	0x37912897	1.7304248e-05
26	0xb962390d	-0.00021574293
27	0xb9b9f5e6	-0.00035469158
28	0xb9f6eb12	-0.00047095917
29	0xbabc5fa0	-0.001437176
30	0xba65922c	-0.0008757438
31	0x395c4b49	0.00021008881
32	0x3af7f5d6	0.0018917869
33	0xb9811a53	-0.0002462441
34	0xb937f3ae	-0.00017543018
35	0xb973487b	-0.00023201287
36	0x39d0f7af	0.0003985739
37	0xba1102c0	-0.0005531721
38	0xba82f018	-0.0009989766
39	0xb9adfdc0	-0.0003318619
40	0xba1fb363	-0.00060920994
41	0x3ac43fe5	0.0014972655
42	0x391057db	0.00013765639
43	0xb7c11fad	-2.3022143e-05
44	0xba4870e5	-0.0007646217
45	0xb6f7d073	-7.3854403e-06
46	0xb8b0ea60	-8.43599e-05
47	0xba91de02	-0.0011128786
48	0xb99e091b	-0.00030142893
49	0x394946ec	0.00019195274
50	0x3ab339ca	0.0013673839
51	0x3a0d6e5c	0.0005395168
52	0x3a0ed62d	0.0005448785
53	0x39e38d07	0.00043401888
54	0xb99d8c97	-0.0003005012
55	0xba2db14e	-0.0006625847
56	0x3a0d5287	0.00053910207
57	0x3a544cfc	0.000809863
58	0x39d56e9d	0.0004070894
59	0xb93b68a6	-0.00017872694
60	0x390c8d69	0.0001340412
61	0x3a11bc1b	0.0005559341
62	0xba7a3d0e	-0.0009545841
63	0x38d041c3	9.930462e-05
64	0x3a1a38cc	0.0005883097
65	0xb95facfe	-0.00021331382
66	0xb83f1ed7	-4.556667e-05
67	0xb98c543d	-0.00026765643
68	0xb8d028b1	-9.925792e-05
69	0xb9fa026c	-0.0004768552
70	0x3acd3aff	0.0015657841
71	0x38e2d99b	0.00010817052
72	0xb9346118	-0.00017202308
73	0xbb12038e	-0.002227995
74	0xba45b2fe	-0.00075416255
75	0xb9c11947	-0.00036830662
76	0xb953e65e	-0.00020208347
77	0xba422c7e	-0.00074071425
78	0x39602cb3	0.00021378956
79	0x38176062	3.609097e-05
80	0xba2e438f	-0.000664764
81	0xba7dd331	-0.0009682654
82	0xba2f2d58	-0.0006682477
83	0x3a2bb558	0.00065501546
84	0x3a58ba18	0.0008267476
85	0x00000000	0.0
86	0x382b0d5c	4.078202e-05
87	0x38dd6f6d	0.00010558856
88	0x399f3183	0.00030363732
89	0xb9f999ff	-0.00047607717
90	0x39045e4b	0.00012623628
91	0x38869cea	6.4188454e-05
92	0x3a2d4228	0.00066092843
93	0xb9a2dd9e	-0.00031064166
94	0xb8ad47b1	-8.2626364e-05
95	0x398ca1d1	0.00026823443
96	0x3a549743	0.0008109698
97	0xba5da05e	-0.00084543775
98	0x394e136b	0.00019652925
99	0xb8aaad33	-8.1384926e-05
100	0x37f0c499	2.8701777e-05
101	0x3936f4b4	0.00017448032
102	0x39e0adf3	0.00042854212
103	0xb8d11de7	-9.971466e-05
104	0x3a26ecd0	0.0006367685
105	0xba42dfc6	-0.00074338575
106	0x3a01ff17	0.0004958971
107	0x39947bba	0.00028320943
108	0xba41d4e4	-0.0007394089
109	0xb9b97e5a	-0.0003538009
110	0xb89f01f7	-7.582077e-05
111	0x398712f0	0.00025763316
112	0x3a8221c1	0.0009928272
113	0xb89a6b7d	-7.3633135e-05
114	0x38856a7e	6.36177e-05
115	0xba7f2d66	-0.0009734243
116	0xb9b773b7	-0.00034990694
117	0xbacc4e84	-0.0015587364
118	0x3a32c23e	0.00068191055
119	0xba648532	-0.00087173574
120	0x391dbd1e	0.00015043138
121	0x00000000	0.0
122	0x39bf9586	0.00036541763
123	0xbb0a80b9	-0.0021133854
124	0x3702a6e9	7.787466e-06
125	0x3964c1ee	0.00021816019
126	0xb97d9cde	-0.00024186398
127	0x3a41fdca	0.0007400183

exp_avg_sq f4 [128]
0	0x36b70960	5.4549164e-06
1	0x366fd2e9	3.573654e-06
2	0x36e58cbf	6.841117e-06
3	0x3738e419	1.1020363e-05
4	0x35d89167	1.6135572e-06
5	0x379aeac7	1.8467557e-05
6	0x3676bda5	3.6767244e-06
7	0x38c3e02f	9.340082e-05
8	0x3657afe5	3.213988e-06
9	0x36e4a9f4	6.8147147e-06
10	0x380072fd	3.062467e-05
11	0x00000000	0.0
12	0x380dde91	3.38243e-05
13	0x36fbdd89	7.506173e-06
14	0x38055c6a	3.179574e-05
15	0x3761f120	1.3467186e-05
16	0x388c7981	6.698352e-05
17	0x372f0975	1.0433015e-05
18	0x3662d252	3.3799047e-06
19	0x36d74105	6.4150686e-06
20	0x3703ff5e	7.867666e-06
21	0x378aff7c	1.6569851e-05
22	0x37a1d7ea	1.9293238e-05
23	0x35c2be97	1.4509595e-06
24	0x38431b28	4.6516914e-05
25	0x34943bb0	2.7610577e-07
26	0x376f1ff4	1.425295e-05
27	0x36d88177	6.4523733e-06
28	0x35a47fd9	1.2256161e-06
29	0x3771e6d4	1.4418463e-05
30	0x38156cca	3.5625686e-05
31	0x3756910e	1.2789167e-05
32	0x382ac825	4.0717558e-05
33	0x37417a60	1.1532189e-05
34	0x372935eb	1.0085739e-05
35	0x3756eee1	1.2811012e-05
36	0x3695a6a4	4.4599456e-06
37	0x36eabf2e	6.9959997e-06
38	0x37fc705b	3.009306e-05
39	0x362da699	2.5875981e-06
40	0x372cf1f0	1.0308329e-05
41	0x37885c24	1.625537e-05
42	0x35f24cb1	1.8052725e-06
43	0x37778781	1.4753897e-05
44	0x36ea7ca4	6.9882535e-06
45	0x3737fa96	1.0965994e-05
46	0x36751818	3.652187e-06
47	0x37ac7870	2.056008e-05
48	0x367bbeab	3.7512898e-06
49	0x37df8362	2.6644851e-05
50	0x366bb629	3.512376e-06
51	0x36bfa13a	5.711013e-06
52	0x382265f0	3.8718747e-05
53	0x364581fe	2.9430953e-06
54	0x37252cbb	9.845181e-06
55	0x380f0c46	3.4105287e-05
56	0x36ca968e	6.037596e-06
57	0x36cacace	6.0436787e-06
58	0x377f5cc0	1.52207795e-05
59	0x3754329a	1.2647966e-05
60	0x36b0f58f	5.2737955e-06
61	0x36a37518	4.87141e-06
62	0x37408f74	1.1477492e-05
63	0x36e016ba	6.678366e-06
64	0x367978b6	3.7174154e-06
65	0x36b2fed3	5.334479e-06
66	0x37285ac4	1.0034713e-05
67	0x379f63f9	1.900083e-05
68	0x36332f27	2.6700525e-06
69	0x36da30f3	6.5026047e-06
70	0x37556d80	1.2721284e-05
71	0x36497f71	3.0025515e-06
72	0x37556ba7	1.2720854e-05
73	0x38ebb130	0.00011238677
74	0x37a56533	1.9716657e-05
75	0x36cb69a1	6.0621683e-06
76	0x36a65a37	4.957688e-06
77	0x37397797	1.10547035e-05
78	0x3796a53e	1.795834e-05
79	0x380aea36	3.311989e-05
80	0x37150d0c	8.88413e-06
81	0x3739e1f8	1.1079472e-05
82	0x375dc215	1.3217815e-05
83	0x36b25a8e	5.3153553e-06
84	0x3688aa82	4.0729656e-06
85	0x00000000	0.0
86	0x369be294	4.645737e-06
87	0x368a86ba	4.1284047e-06
88	0x36b9a2b2	5.53237e-06
89	0x36ab3999	5.1029024e-06
90	0x3797bf6b	1.8089739e-05
91	0x36523d0d	3.1327975e-06
92	0x37e4788f	2.7235857e-05
93	0x363a5d1f	2.7770363e-06
94	0x3687f5b9	4.0519194e-06
95	0x377fc4e8	1.524503e-05
96	0x352250e3	6.046741e-07
97	0x37e70334	2.7538837e-05
98	0x3604dc25	1.9797674e-06
99	0x3775cb6a	1.4650499e-05
100	0x359baaf2	1.1598152e-06
101	0x3658d874	3.23125e-06
102	0x37cff283	2.4789251e-05
103	0x36b53e3c	5.4014654e-06
104	0x369a6888	4.6017267e-06
105	0x36ef0486	7.1232816e-06
106	0x36bf70e9	5.705388e-06
107	0x379123ec	1.7302074e-05
108	0x36f3a736	7.2614303e-06
109	0x37883cde	1.6240807e-05
110	0x3756abf5	1.2795431e-05
111	0x373dc4ef	1.131113e-05
112	0x3719c945	9.166372e-06
113	0x3715145b	8.885831e-06
114	0x379804b4	1.8122002e-05
115	0x377de151	1.5132436e-05
116	0x36bc0f24	5.604599e-06
117	0x390e437c	0.00013567315
118	0x36c1bbc7	5.7737084e-06
119	0x375ae0f6	1.304619e-05
120	0x37289212	1.004759e-05
121	0x00000000	0.0
122	0x387318fd	5.7958987e-05
123	0x38b85cea	8.79111e-05
124	0x36a337f1	4.864291e-06
125	0x36c3c101	5.8339215e-06
126	0x364cfa29	3.0543981e-06
127	0x37ccbaf4	2.4405752e-05
